models/best_model_checkpoint_v2.onnx (onnx, 457823 bytes, 12 tensors)

sequential/dense_2/MatMul/ReadVariableOp:0 f4 [64, 7]
00000000: 5647 e2bd 2e7c edbd 5782 ff3d 3f49 8f3c
00000010: 5cfd 093e 477e 7fbe 8dd6 7e3e 7c26 7e3e
00000020: a628 903e d2cc eebe 6d81 ef3d cca7 58be
00000030: c1c6 623e 5c99 5f3e 5513 593e 7a75 40be
00000040: 5c8d 75bc 2dd0 713e 82c5 87be 86c2 d93c
00000050: 55eb 0cbf 7cc3 093e 0b2f 0abe 2178 36be
00000060: 6391 97be 8e87 83be b9ad c8bd 1bb1 043e
00000070: 4e30 2f3e 3d58 123d 32ef 8bbd d9d0 21be
00000080: c81e 1b3e 2fe3 4bbd b317 513e 1ced 7d3e
00000090: 3163 4a3e 80c3 0e3d cb54 123e 6f19 4bbe
000000a0: b547 683e f3c4 09bf bdac 43be e0c4 f4bc
000000b0: bc98 e53d 910e 0a3e 7e0e 3fbe a975 93bd
000000c0: 6176 a83d 7bb6 933e 8360 33be 38ca f13d
000000d0: ed5a 01be e6cc 02be 455a 393d c0ed dabc
000000e0: cbd8 69bd 19bc 3f3e be2b 2b3e a4b7 6b3e
000000f0: cabf 4dbe 41b0 21be c635 98be ac6d 133e
00000100: b0c7 123e 78cb cabd 90bb a6bd ba42 83be
00000110: ba51 393e 8994 933d ed3a 903e d375 4c3e
00000120: 9572 10be ea84 9f3d 08b9 94bd a303 64bd
00000130: 8cf9 10be 1035 633e a8b9 55bd 4ec1 e5be
00000140: c686 813e 91d1 aabe 902e b63c 35c0 1dbf
00000150: 686e 12bd 7132 bdbe ea29 35bb 9860 b23d
00000160: 807b d8bd 99f8 b5be acfb b3bc ebbf 89be
00000170: 0feb f7be c5ec 10bd 0013 b9be a0dd 743e
00000180: d4dd 9abe 477e b6bc caf3 52be ca8c 87be
00000190: e55c 193e 2d6f 98be b285 3bbd 369a e7be
000001a0: de3a 74bb e518 2c3e a28e 92be 6879 8b3e
000001b0: e3ec 02bf 3cca ab3e a1ae cebe 5f13 60be
000001c0: 11df 033e 1241 c5bd 0c67 b1bc b825 7fbe
000001d0: 5fd8 cebc c04b c3be 6e68 10be ef71 74be
000001e0: 7c47 4fbe 72a3 f9bd a77d 08be 20e2 07be
000001f0: 1e09 353e 78aa 343e c82c 36bd 67fe 3a3d
00000200: 0c3a f1bb 7f66 dabc 96c4 bbbe 6abc 1e3e
00000210: c88c b93b 9428 35be 26ac 563e 4e36 003c
00000220: 8c9c 7bbc 7852 90bd 51d5 873e 11e2 2fbe
00000230: 29cd 9ebe e3dd 423d 738d a53e 1b7e 3d3e
00000240: 4805 f8bd 2d60 b2bd ac5a db3d 6b90 90be
00000250: dd19 fd3d 7a1f 803c 0b86 913c 76d6 83be
00000260: 47cb 633e 93c0 22be 2bac 91bd a08a 04bf
00000270: 215e 643e 6441 13bf 4244 763e 9b62 f4be
00000280: 8efc f9be 473f dfbc cc7d 603e 8c9e bdbe
00000290: 06b1 a53e 50fa dfbe f3e2 97bd 9db1 17bf
000002a0: cdcd bf3d 9a49 b8be 3ea0 9dbb 36ca ccbe
000002b0: 3372 723c 9564 a0be 0f57 9c3e 0d21 0fbe
000002c0: 9243 433e 04bf 02be a903 483e 2737 bcbe
000002d0: ccdd 98bc 0c2b ffbe 4c67 d1be 6901 9a3d
000002e0: 34c2 0f3d 4c62 2cbd 44c2 bebd 0eca ad3d
000002f0: 8c98 1fbf 9968 99be 1c08 893d 1403 643e
00000300: aed4 4f3d cb0a 973e b686 47be 04cf 7bbe
00000310: 7d86 8fbe d7f4 8d3e 10b6 493c e7f6 a8bd
00000320: 1aaf 90bd 4d4f 133e d4b5 c4bc c6d5 2e3d
00000330: 0d74 903e b773 27be 49e3 77be ead7 183e
00000340: 275a 94be b48f 15be 4fda 8bbd 602f a93d
00000350: d26c ee3d 5f9d 053e eb01 78be 55ff 8fbe
00000360: 992c 033e d163 693e ffa2 363e 1100 b5bd
00000370: bc4b 463e dd21 523c 799e 35be cdf7 1fbe
00000380: 65d0 34be 0c0c 393e 3ba3 33bb 60bc 663e
00000390: 918f 64be 1b62 dc3d d541 43bf e195 803e
000003a0: 9c26 3dbe d46c 2abe b665 28be ca08 27bc
000003b0: be4b 403d 7406 a4bd 6250 8d3e 9298 93be
000003c0: d1fe 823d 2c84 b0be ffec 46bd ecad dcbc
000003d0: 025a 913d 61f2 e1be 9d95 2e3e 3939 bb3d
000003e0: 3fc5 403e 1da7 0b3e a867 2d3e 496c 4abe
000003f0: 07eb 04be 747b 5bbe 4e7b 713e e1ac 63be
-0.110487625 -0.11595951 0.12476032 0.017490981 0.13475555 -0.24950515 0.24886532 0.24819368
0.28156012 -0.4664064 0.11694608 -0.2115776 0.22146131 0.21835846 0.21198781 -0.18794814
-0.014987316 0.23614569 -0.26517874 0.026582014 -0.5504659 0.13453478 -0.13494508 -0.17819263
-0.2960311 -0.25689358 -0.0979876 0.12958185 0.1710827 0.03572868 -0.06832732 -0.15802325
0.15148461 -0.049777206 0.20419197 0.24797481 0.19764401 0.034854412 0.14290158 -0.19833921
0.22683604 -0.53816146 -0.19108863 -0.029879034 0.112107724 0.13482119 -0.18657872 -0.07200176
0.08225704 0.2885016 -0.17517285 0.11806148 -0.12632342 -0.12773475 0.045252103 -0.026724696
-0.057091516 0.18724097 0.16715905 0.23019272 -0.20092693 -0.15789892 -0.29728526 0.14397305
0.14333987 -0.0990209 -0.081412435 -0.25636846 0.18097582 0.07206065 0.28169957 0.19966821
-0.1410621 0.07789023 -0.072618544 -0.05566753 -0.14157695 0.2218821 -0.05217901 -0.44874042
0.25298136 -0.3336301 0.022239 -0.6162141 -0.035749823 -0.36952546 -0.002764339 0.0870983
-0.10570431 -0.35541227 -0.021970592 -0.26904234 -0.48421523 -0.03538205 -0.36147308 0.23912668
-0.30247366 -0.02227701 -0.2060081 -0.264746 0.14976843 -0.2977232 -0.0457818 -0.4523484
-0.0037266533 0.16806372 -0.28624445 0.27241063 -0.5114271 0.3355273 -0.40367606 -0.2188239
0.12878062 -0.09631552 -0.021655582 -0.24916732 -0.025249658 -0.3814373 -0.14102337 -0.23871587
-0.20242113 -0.12189378 -0.13329183 -0.13269854 0.17679259 0.17643154 -0.0444763 0.045652773
-0.007361656 -0.026660202 -0.3667342 0.15501562 0.0056625344 -0.1769126 0.20964107 0.007825447
-0.015357148 -0.0704698 0.26529935 -0.17176081 -0.310159 0.04757489 0.3233448 0.18505137
-0.12110382 -0.0870975 0.10710654 -0.28235182 0.12358449 0.01564001 0.017764112 -0.25749558
0.22245513 -0.15893774 -0.071129166 -0.51774025 0.22301532 -0.57521653 0.24049476 -0.4773148
-0.48825496 -0.027251853 0.21922988 -0.37035024 0.3236162 -0.4374566 -0.07416334 -0.5925539
0.09365425 -0.35993654 -0.004810362 -0.39998025 0.014797735 -0.31326738 0.3053517 -0.13977452
0.19068745 -0.12768179 0.19532646 -0.36760828 -0.018660448 -0.4983753 -0.40899122 0.075198
0.035097316 -0.04208593 -0.09314397 0.084858045 -0.62342143 -0.29962614 0.06691 0.22266799
0.050739937 0.29500422 -0.19484982 -0.24590689 -0.28032294 0.2772586 0.0123114735 -0.08250218
-0.07064648 0.1438572 -0.024012484 0.04268434 0.2821354 -0.16352735 -0.24207796 0.14926115
-0.2897503 -0.146056 -0.068287484 0.08260989 0.116418496 0.13048314 -0.24219482 -0.2812449
0.12809981 0.22791983 0.17835616 -0.08837903 0.19364828 0.012825456 -0.17736234 -0.15621872
-0.17657621 0.18071002 -0.0027410525 0.22532797 -0.22320391 0.107609 -0.76272327 0.2511435
-0.1847176 -0.16643077 -0.1644505 -0.010194967 0.046947233 -0.08009043 0.2760039 -0.2882734
0.063962586 -0.3447584 -0.04856586 -0.026938401 0.07097246 -0.44130233 0.1704926 0.09141774
0.18825243 0.13637967 0.16934073 -0.1976787 -0.12980281 -0.21433812 0.23582193 -0.22233917

sequential/dense_2/BiasAdd/ReadVariableOp:0 f4 [7]
00000000: b8c2 443e 42c7 85be 6d17 11be ca41 5d3e
00000010: a090 a2bc 724e 4fbd 3a21 09be
0.19214904 -0.26128584 -0.14169092 0.21607128 -0.019844353 -0.05061192 -0.13391581

sequential/dense_1/MatMul/ReadVariableOp:0 f4 [128, 64]
00000000: 4859 f1ba 5fca f83d 08cd 4b3d 1e46 c43d
00000010: 09bb 16be f41c 51be 93b3 04be cb01 e8bd
00000020: fe77 a03d d727 27bd 5513 c0be bcc9 b83d
00000030: 73bd f33b 9feb 5bbd 3061 623c cb93 8ebe
00000040: b918 03bd 3fbb 64bd d117 403e 8e57 b43c
00000050: ef79 473e 7cf3 bdbb 7f78 92be c44c 923d
00000060: e810 213e c15f 3e3c 3f58 ff3d ad56 d73d
00000070: c266 89bd d6a4 c1be 980f 9f3e 305f 443e
00000080: 0b04 d93d a17c 92be 6e8e fd3c 8675 4f3e
00000090: 3bec b1bc 38b9 1b3e d5fa 533e 8646 ec3d
000000a0: 899f f5be a02a 233d d059 463e 1048 38bd
000000b0: 2167 293b 899e b2bc 0991 5abe dd68 78be
000000c0: f04b 25be 8896 363e c0ae 8e3d 5e5e 493e
000000d0: b1c4 c2bd ecc2 afbe 71a8 0a3e 76c0 d23d
000000e0: bca8 aa3b 618a 9bbd aa9f 71bd 51c4 953d
000000f0: a5c5 d03d 521e 923c 6b6c f03d 2995 debd
00000100: bdc9 903e fc40 8bbd 9998 b8bd 8549 68bd
00000110: 1510 9e3e 8654 133e 02f2 efbd e003 7abd
00000120: 1da8 303d 84b8 2abe 21d8 61be bf9f 9e3d
00000130: 123d bebd 7edc 893e 2133 34be 6d81 cfbe
00000140: 9786 37be 6c6f 0a3e fda0 b4bd 0421 29be
00000150: 9b9a cb3d e891 6c3d ef75 6bbe f874 803c
00000160: feb5 3f3e 442e 903d 826e 113e 568a a4bd
00000170: c2d6 c73d 220f bf3d d56a 13be 1610 82bd
00000180: b45d d03d 4dcb 2bbe e8f3 87be f96e 26bb
00000190: 7e0c babd 88bc 1bbe 2590 cebd 7026 1bbe
000001a0: 6072 7e3d 5848 9a3b e47e 2a3e 88e0 623e
000001b0: e517 7cbd 991e c1bd 8f41 17be 13c5 d4be
000001c0: dd31 1cbe 94c0 1a3e 6a8a 013d 53e4 eb3d
000001d0: bce3 d13d 8515 243d ded7 95be d200 76be
000001e0: d1be c7bd 82f1 f4bd 833c 033e 9bc6 433e
000001f0: fca2 383e ab2a 393e 2660 623e a234 d9bd
00000200: e713 f23d c705 503d e4c4 4e3e a960 933c
00000210: 75fb 993c 1b43 93bd 8553 75bd a414 ed3d
00000220: edcd 6fbe 3409 b83d 87d8 eabd 322f d43d
00000230: 5d81 7fbe fe9a 863e ad5a bebd 62bf 863d
00000240: 7297 8e3c b95f a13d ee73 8cbd 3cfa c5bb
00000250: 957f 0abe 55b9 213d 472a d7bb d6f9 c6bc
00000260: 5bf6 6dbc 792e b4bd 6916 8cbe 984f d8bc
00000270: ec9f 32bd e7dd e2bd d847 8cbd b1f5 c1bd
00000280: 29d3 763d 2bd4 663e 719d 983d 2c76 273d
00000290: ceb9 90be 79de 263e 151e 893e dea7 57bd
000002a0: 1c8d 503e 19ed cabd 2294 363e 4df3 99bd
000002b0: 0253 c7bd daae 783e 6806 123d 5410 cbbd
000002c0: 7b26 1d3d 680d 82bc 19c6 143e 25be 17bd
000002d0: c86e 653e 8c75 e53d 4565 cbbd bfe4 9dbe
000002e0: 3370 01bd 9d2d 9ebe 2c88 acbc 8f24 233e
000002f0: 0850 60be 8e9f da3d c13d 4b3e 23bd f23d
00000300: 5324 2cbe cc25 c43c 2ca4 31bd 3bf7 80bd
00000310: 0376 1e3b 6a44 37bc bd05 3ebd 5e23 b3bd
00000320: 79df 0e3e 0bb7 883d f38a 1c3e 5f0f fb3d
00000330: 5845 753b f0f0 16be 3cae 113e e555 233e
00000340: 0ac3 6b3c 00fa bdbe 3b4a d73c 26c5 9e3d
00000350: ce29 cabd 3ce5 38be 9268 093e 9d03 cabd
00000360: 3ed0 ddbd d153 723c 5d32 723e d531 063e
00000370: b43f 113e 2b41 443e 0535 f8bd cf06 e73c
00000380: 4ffe 463d 76f3 033c 2917 11be fa04 e3bd
00000390: d0be 3dbe 6e95 13be ed73 0bbe b854 263e
000003a0: 24fa 823d 47b0 37bc 6d6e 9139 a123 073e
000003b0: 590d 433c de08 bf3d c404 cbbd 195c d13d
000003c0: 2d92 1a3b 64ad 07be db14 33bd b625 9bbe
000003d0: 60c2 8dbe a81d 70ba 506a 493d db83 eb3d
000003e0: 8cca 1f3d c5ab f43c 7fe6 68bd e84b a7bd
000003f0: dd98 ea3c ee60 02be bfb6 4ebe 1c81 27be
-0.0018413449 0.12147974 0.04975608 0.09583686 -0.14719786 -0.20421201 -0.12959127 -0.11328467
0.07835387 -0.04080948 -0.3751475 0.09022853 0.0074383556 -0.053691503 0.013817117 -0.27847132
-0.032006 -0.055842634 0.18759085 0.022014406 0.19480108 -0.005796848 -0.28607556 0.07143548
0.15729105 0.011619509 0.124680035 0.10514579 -0.067090526 -0.37821072 0.31066585 0.19176936
0.10596474 -0.2861071 0.030951705 0.20259675 -0.021719089 0.15207374 0.20701154 0.11536889
-0.47973278 0.039835572 0.19370198 -0.0449906 0.0025848823 -0.021804111 -0.21344389 -0.24258752
-0.16142249 0.1783086 0.06966925 0.19664904 -0.09510172 -0.343284 0.13540818 0.10290615
0.005208103 -0.07594753 -0.05899016 0.07312835 0.10193948 0.017836723 0.11739429 -0.10868294
0.28278914 -0.06799504 -0.09013481 -0.05671074 0.30871645 0.14387712 -0.11716081 -0.06103885
0.043129075 -0.1667195 -0.22055103 0.07745313 -0.09288992 0.26926035 -0.17597629 -0.40528432
-0.17922436 0.13519067 -0.088197686 -0.165165 0.09941598 0.057756335 -0.22994207 0.015680775
0.18721768 0.070400745 0.14202312 -0.08034198 0.09757759 0.09329058 -0.14396222 -0.063507244
0.101741225 -0.16776772 -0.26553273 -0.0025395735 -0.09084414 -0.15208638 -0.10086087 -0.15151381
0.062120795 0.004708331 0.16649967 0.22155964 -0.061546225 -0.09429664 -0.14771102 -0.41556606
-0.15253396 0.15112525 0.031626143 0.11518159 0.10248515 0.040059585 -0.29266256 -0.2402375
-0.09753192 -0.119601265 0.12816052 0.1911873 0.18030924 0.18082683 0.2210699 -0.10605742
0.11820202 0.05078676 0.20192295 0.017990427 0.018796662 -0.07190534 -0.059894104 0.115762025
-0.23418398 0.0898613 -0.114670806 0.10360564 -0.24951692 0.26290125 -0.09294639 0.06579472
0.0174062 0.07879586 -0.06858049 -0.006041793 -0.13525231 0.039483387 -0.006566319 -0.024289053
-0.014524068 -0.087979265 -0.27360848 -0.02640514 -0.043609545 -0.11077481 -0.068496406 -0.0947069
0.06025997 0.22541873 0.074519046 0.04088418 -0.28266758 0.16295804 0.26780763 -0.052650325
0.20366329 -0.09908504 0.17829946 -0.07517109 -0.09732629 0.2428545 0.03565064 -0.09915224
0.038366776 -0.015875533 0.14528693 -0.03704657 0.22405541 0.11204061 -0.09931425 -0.30838582
-0.031601142 -0.30894175 -0.021061026 0.15931915 -0.2190553 0.10674964 0.19847776 0.11852481
-0.16810732 0.023943804 -0.043369457 -0.062971555 0.0024179227 -0.011185745 -0.04639219 -0.0874698
0.13952436 0.06675538 0.1528738 0.12258791 0.0037425365 -0.14740348 0.14226621 0.15950735
0.014389763 -0.37104797 0.026280513 0.07752447 -0.09871255 -0.18056196 0.13418797 -0.098639704
-0.10830735 0.014790491 0.23652025 0.13104947 0.14184457 0.19165485 -0.12119488 0.028201489
0.04858237 0.008053651 -0.14168991 -0.110849336 -0.1852982 -0.14412472 -0.13618441 0.16243255
0.06395367 -0.011211461 0.0002773883 0.13197185 0.011905038 0.09327863 -0.09913018 0.10222644
0.0023585663 -0.13249737 -0.04372106 -0.3030221 -0.2768736 -0.00091596926 0.049173653 0.11499759
0.039011523 0.029867062 -0.056860443 -0.08168775 0.028637344 -0.12732288 -0.201869 -0.16357845

sequential/dense_1/BiasAdd/ReadVariableOp:0 f4 [64]
00000000: 5c29 263e a476 093e d6fb 0a3f 481b 3c3e
00000010: a067 843c 696e ac3e e545 ad3d 2ed8 823e
00000020: 7662 7c3e 81ba 253e 1fa9 993e 6f1f d63e
00000030: 3800 a63e fc56 833d 00e9 12ba 879f a63e
00000040: f49a 6c3e ff9f fa3c c0f6 40be 596f 4cbe
00000050: 3aa1 8dbe 8ecb 81bd d96e 923e 5332 633e
00000060: 48ab 333d 67ed ee3d c2d0 31bd b6d2 c43d
00000070: f618 e0bc 13e3 1d3c a76d 2fbe 1d63 933e
00000080: 33fb 1d3e 43d7 7b3e ec22 9a3e ef8f 7e3e
00000090: 0a47 e5bd c2d1 5fbd f3ab 0c3f 52c4 b53e
000000a0: 9edc 813e b459 cc3e 3534 49bd 4079 9bbe
000000b0: 0451 973e 9c72 8e3e 30c5 673e e46d a63e
000000c0: d09e a83e f31a ce3e 3ea4 e13d 1b05 7a3e
000000d0: f117 493e efe7 8f3c d12c 743e 1b48 66bd
000000e0: 4878 ad3d 8809 a53d 9137 7f3d 1c5f a9bd
000000f0: 0568 d2bc c81a 383e c5b3 123e c5d8 713e
0.16226715 0.13424164 0.5429052 0.18369782 0.016162694 0.33677986 0.08460597 0.25555557
0.24646935 0.16184427 0.30011842 0.41820857 0.32422042 0.06413075 -0.0005604178 0.32543585
0.23105985 0.03059387 -0.18844128 -0.19964351 -0.2766207 -0.06337653 0.28600195 0.22187166
0.04386452 0.11666375 -0.043411978 0.096105024 -0.027355652 0.009636658 -0.17131673 0.28786555
0.15427856 0.24593835 0.30104768 0.24859594 -0.1119519 -0.0546434 0.54949874 0.35501343
0.2536363 0.39912188 -0.049122054 -0.30365944 0.29553998 0.27821815 0.22633815 0.32505715
0.32933664 0.40254936 0.11017655 0.2441601 0.19638039 0.01756665 0.23845221 -0.05622111
0.084702075 0.080584586 0.06230885 -0.08270094 -0.025684366 0.17978966 0.14326389 0.23617847

sequential/dense/MatMul/ReadVariableOp:0 f4 [48, 128]
00000000: e1bb b93d 2ee2 ad3b 127a 81be b91a 65bd
00000010: 552d 77be 2710 7ebe 950d cabd c332 44be
00000020: c9f9 33be 73c3 583e b35a 95be a2a5 7bbe
00000030: 2484 9abe 3ece a9be 6d56 96be 35c1 ef3d
00000040: e82c 7fbb c792 f7bd 2960 20be 5589 5d3e
00000050: 305c 1fbe 59d4 49be 2ce7 b0bd 58a3 05be
00000060: 141a f4bd 91d6 923d 8cb8 093e b673 063e
00000070: a022 82be 651b b5be b608 32be 865a 5dbe
00000080: ad4a 16bc 94f5 d7bd 2286 31be 0656 6cbe
00000090: bf1f 8bbd 9d73 1abe e497 ffbd d53d df3d
000000a0: d94d ab3e fc50 37bd 6791 cdbd 3309 173e
000000b0: 8f65 813e f07d e53c dd3f d83d c876 b43d
000000c0: 247a 323e afd4 2dbd 58b0 13bd ed0c 5bbe
000000d0: 78c3 2ebe dfce ccbd b3f2 68be 875d be3d
000000e0: 898c 66be 1288 6ebd 6ffa 94bd 8411 8ebe
000000f0: 6961 4e3d 3586 39be ea35 a13e 0c6a 39bc
00000100: b91a cf3d 11a3 0d3e 5eb4 193d 96e1 7bbd
00000110: e9c6 bf3e 7cba 17be 7928 f1bd ef34 043e
00000120: 7d7a 24be f816 183e 66f9 5fbe 6e23 f4bd
00000130: c36b cabd 3585 cbbd d462 9dbd f9bb 77bd
00000140: 3cb8 aabd 1a74 35be b392 2dbe cb94 cebd
00000150: e896 86be 841f 95bd 1d01 d7bd 8354 99bc
00000160: dcaa 093e 3f1a 17be 2293 683e 1f4b dbbd
00000170: bbcc 27be 889f 94be 98f0 afbe 786a 0cbe
00000180: 635f f1bd 0dd2 68ba 8e83 49bd 8df1 8abd
00000190: 56e7 9cbd b5a5 cabd 02a7 e2bd 5c21 fd3d
000001a0: d90a 1cbe 44c2 54be ca6c 40bd 4244 aabd
000001b0: 7124 3f3d 02eb 81bd 8f30 7b3e bd31 0c3d
000001c0: 2952 0ebe 62bf 33be 7ec5 0cbe 0508 0abe
000001d0: ffe6 f6bd ab7c 36be 58b5 0dbe 3512 06be
000001e0: 3e8d d3bc ca82 cf3d da45 dcbd b044 b0bd
000001f0: ea0c 023e b27d fdbd 62d1 86be e579 ea3d
00000200: 25aa 87be 346e 4cbe 34ea 2b3e a0c4 7abe
00000210: d459 1d3e fc41 25be bbb6 1dbb e0c9 98be
00000220: 4baa 983a 6fa5 0cbe fc5e 1f3e 6db0 59bd
00000230: 060e ed3d 42cd ef3d c270 1c3e 55c7 ffbd
00000240: b332 9ebe d69a c03d 0000 4bbd a043 343e
00000250: 0ab6 57bd a6ed 03be 1408 b4bd 3ecd 4bbe
00000260: 9c65 093e 0432 53be 2a32 12be 1761 a6bd
00000270: abaa 39be dcd8 283d 4204 80bd 28ec 94bd
00000280: 7b3d 333d 8ccc 4dbe c625 0fbe 6bf1 59bd
00000290: 901d 87be 10a5 62be 3712 8e3c d61a 83be
000002a0: 1abd 49bd b75f 3cbd f27a acbd 3bf3 9abe
000002b0: eda9 86bd 85a8 56bd 317c 12bd 3d69 11be
000002c0: b988 1cbe a75d b63d b4bf 72be c040 833e
000002d0: fb4e e03d f6ce acbd 09c2 da3d 161e 08be
000002e0: acbc c03c 5639 043d 03f3 13be 791c 463e
000002f0: 326f b63d 5e9a 1abe 9746 72be d07f 4cbe
00000300: f7b4 943d 5fc3 c2bc 9153 61be 10cb f9bd
00000310: 4542 49be 34ba 30be 523b 66be 9a59 3dbe
00000320: edd0 b03d cd84 c13d fa75 bd3d 53bf 453d
00000330: e505 763d 9b12 69be bdf3 c2bd 8034 2ebd
00000340: afab 913e 57c6 47bd 4843 183d 31f0 3d3e
00000350: 0dd0 f7bd cbe9 a63d b6cd 92be 72a2 afbd
00000360: 97ae c7bd a9ca 12bd a941 c3be cb22 68bd
00000370: 4d0c ec3d 4591 9e3d 2414 d43d 96a2 2dbc
00000380: cff2 3cbe 45dc d1bd 48c2 dcbd 195b 88bd
00000390: 188b 973e 8c4a 583c 1cde 903c 9181 26be
000003a0: 465e 00bd 41c5 073e 9450 3fbe 0bc6 ab3c
000003b0: 0f80 0fbe 908f 1e3e c4bd 153e 449e 4d3c
000003c0: c768 843e c6b0 b33d c57c 213e 4d68 7fbd
000003d0: 68a3 883d ea32 1d3e 9bd3 6cbe fbaa 483c
000003e0: 4c5d b9bd 66da 37be f276 203e a79f 8fbe
000003f0: d7a9 fc3d faef 813e 0f6f 7ebc 9198 683d
0.09069038 0.0053065037 -0.25288445 -0.055933688 -0.24138387 -0.24810849 -0.09865872 -0.19159989
-0.17575754 0.21168308 -0.2917076 -0.24574903 -0.3017894 -0.33165163 -0.29362813 0.11706773
-0.0038936678 -0.120885424 -0.15661682 0.2163442 -0.1556251 -0.1970991 -0.086378425 -0.13050592
-0.119190365 0.071698315 0.13449305 0.13130078 -0.25417042 -0.35372463 -0.17386135 -0.21616563
-0.0091730775 -0.10544887 -0.17336324 -0.2307969 -0.067931645 -0.15083165 -0.12480143 0.109004654
0.3345783 -0.044754967 -0.10037499 0.14749603 0.25272796 0.028014153 0.10559056 0.08811718
0.17429405 -0.04243916 -0.036056846 -0.2139165 -0.17066753 -0.10000395 -0.22748832 0.09295183
-0.22514547 -0.058235236 -0.07274329 -0.27747738 0.050385866 -0.18117602 0.31486446 -0.011316787
0.10112519 0.13831736 0.037525527 -0.061494432 0.37456444 -0.14817232 -0.11775298 0.12910818
-0.1606235 0.14852512 -0.21872482 -0.1192082 -0.09883835 -0.099375166 -0.076848656 -0.060482
-0.08335921 -0.1772007 -0.16950493 -0.10086974 -0.26287007 -0.07281402 -0.10498259 -0.018717056
0.13444084 -0.14756106 0.22712377 -0.107076876 -0.16386692 -0.29027963 -0.34363246 -0.1371249
-0.11785772 -0.00088813977 -0.049197726 -0.067843534 -0.07661311 -0.09894887 -0.110670105 0.123598784
-0.15238513 -0.20777231 -0.04697875 -0.083138004 0.046665613 -0.06343652 0.24530242 0.03422712
-0.13898529 -0.17553475 -0.13747212 -0.13479622 -0.12055778 -0.17820995 -0.13838708 -0.13092883
-0.025824185 0.10132368 -0.10755511 -0.08606851 0.12700239 -0.1237749 -0.2633162 0.11449031
-0.26496997 -0.19963914 0.1678856 -0.24489069 0.15366298 -0.16138452 -0.0024065215 -0.29841518
0.0011647431 -0.13734983 0.15563577 -0.05314677 0.115749404 0.11709072 0.15277389 -0.124891914
-0.30898055 0.094045326 -0.049560547 0.17603922 -0.05266384 -0.12883624 -0.08790603 -0.19902512
0.13417667 -0.20624548 -0.14276949 -0.08123987 -0.18131511 0.04122244 -0.06250812 -0.07271606
0.043759804 -0.2009756 -0.13979253 -0.05320875 -0.26389742 -0.22133279 0.01734267 -0.25606412
-0.049252607 -0.04598972 -0.084218875 -0.30263695 -0.065753795 -0.052406806 -0.03576297 -0.14200301
-0.1528653 0.089045815 -0.23705941 0.25635338 0.10952564 -0.08437912 0.106815405 -0.13292727
0.023527466 0.032281242 -0.1444817 0.19346799 0.089079276 -0.15097949 -0.2365974 -0.19970632
0.07261079 -0.0237748 -0.22004534 -0.12196934 -0.19654186 -0.17258531 -0.22483566 -0.18491212
0.086335994 0.09449158 0.09251018 0.048278164 0.060064215 -0.22761004 -0.09519146 -0.042530537
0.28451297 -0.048773136 0.03717354 0.18548657 -0.121002294 0.08150061 -0.2867257 -0.08575906
-0.09750097 -0.035837803 -0.38136032 -0.056673806 0.11525784 0.07742552 0.10355404 -0.010597846
-0.18451999 -0.10247091 -0.10779244 -0.066580005 0.29598308 0.013201367 0.017684035 -0.16260363
-0.031339906 0.1325884 -0.18683082 0.020968458 -0.14013694 0.15484452 0.14623171 0.0125499405
0.2586119 0.08773951 0.15770252 -0.06235533 0.06671792 0.15351453 -0.23127596 0.012247796
-0.09050998 -0.17954406 0.15670374 -0.28051493 0.12337082 0.253784 -0.015529408 0.056786124

sequential/dense/BiasAdd/ReadVariableOp:0 f4 [128]
00000000: 6365 0b3e 03e8 1ebd 15e5 8d3e 20d8 00bd
00000010: f83a 5b3e 2067 da3d 82ac 423c 6998 40bd
00000020: 8e7f 86be 7382 803d e2dd e53d 48c8 1b3e
00000030: 96b2 4a3e 4ab2 4f3d 0bad 003e bde9 f3bc
00000040: 38ff 093e 2c5f acbb 5793 f43c 2a48 af3d
00000050: 33c7 a03d 023e ce3d 5c9e 06be e379 a53d
00000060: c156 92bc 2b75 e13d 7b87 283e 2058 903d
00000070: c214 bb3c 2a59 063e 2254 cc3d ff05 563d
00000080: fd46 b73d 0dd7 b63c a15c d3bd d6dd 423d
00000090: 6909 963d 8a2c 55be e159 aa3d cee3 1f3e
000000a0: fc83 873b 4f04 cbbd a6ad 2bbe e795 ca3d
000000b0: 0663 123e fcbf 4e3e 7fd0 b6bc cc9c 0e3d
000000c0: 5478 063d 40b7 3ebc 5188 a63d 453d 03bc
000000d0: 15b5 513d 121e 8fbd 79b5 ba3d 8c8d 133e
000000e0: 84e3 b0bc 8212 a53d c32b c03c 6667 fc3d
000000f0: 403e abbd 8854 4ebe 5989 b73d f3cb 70bc
00000100: 98d2 523d 88f5 983d c2ab bc3d b220 a93d
00000110: d974 ab3d 51b8 0bbe 0af4 47be 19bb e73d
00000120: f69e 243d 551a d13d eca1 5b3d bad7 84be
00000130: 3888 4a3d b13f 243d 6770 30be 4c3c 86bd
00000140: a15f 2a3c 07a2 e73d c1e9 93bc 46e2 003d
00000150: d204 fd3d 823f 5d3e 38db dabd c5ec 8ebc
00000160: 6d58 0c3e 757f 5fbe f153 063e 63c1 c2bb
00000170: 33ec 3b3e 0943 9a3d e638 073e ffa2 eabd
00000180: 2ab7 78be 03d6 32bd 9376 783e 8c78 e83d
00000190: ee80 223e 31a9 333e e5f4 2e3d d94c 043e
000001a0: d1c0 ed3d 772f 873d 58cd 59be 85ed 953d
000001b0: 44df 75be f615 c7bc cc01 293d 736f 033e
000001c0: 03c0 9fbb 2269 fd3c d09c 443d 7648 1a3d
000001d0: df2f bf3d 11c9 70bc d5cc d5bd 762c 93bd
000001e0: 0202 34bc 4e10 013e 2dd4 0a3d 722e a3bd
000001f0: 00ce 263e 7ba0 133a 91b4 be3d dcf6 8c3d
0.13612895 -0.038795482 0.27713838 -0.031456113 0.21409214 0.10664201 0.011881949 -0.04702035
-0.26269192 0.06274881 0.112239614 0.1521312 0.19794688 0.05070714 0.1256601 -0.029774541
0.13476264 -0.005260369 0.029855413 0.08558686 0.07850494 0.10070421 -0.13146347 0.08079889
-0.017863633 0.11008676 0.16457932 0.070480585 0.022837047 0.13119951 0.099769846 0.052251812
0.08949087 0.022319341 -0.10320402 0.04757484 0.073260136 -0.20817772 0.08317924 0.15614244
0.004135607 -0.09912931 -0.1676546 0.09891873 0.14295587 0.20190424 -0.022316216 0.034817502
0.032829598 -0.01164037 0.08131469 -0.008010213 0.051198084 -0.06988157 0.091166444 0.14409465
-0.021592863 0.08060171 0.023458367 0.12324409 -0.083614826 -0.20149434 0.08961744 -0.014697063
0.05147037 0.07468706 0.09212448 0.08258189 0.08371896 -0.1364453 -0.19526687 0.11314983
0.04019066 0.102101006 0.053621218 -0.25945836 0.049446315 0.040099803 -0.17230378 -0.065544695
0.010398776 0.11310201 -0.018055798 0.03146579 0.12354435 0.21606258 -0.10686344 -0.017446885
0.13705607 -0.21825965 0.13117959 -0.0059434636 0.18351822 0.07532317 0.13205299 -0.1145687
-0.24288622 -0.04366113 0.24263982 0.113511175 0.15869495 0.1754501 0.04271402 0.1291994
0.116090424 0.0660085 -0.21269739 0.07320694 -0.2401095 -0.024302464 0.04126148 0.12835483
-0.0048751845 0.03093392 0.04800111 0.03766676 0.093353026 -0.0146963755 -0.10439459 -0.071862146
-0.010986807 0.12603876 0.033893753 -0.07967843 0.1628952 0.00056315184 0.09311784 0.06883022

sequential/conv2d_2/Conv2D/ReadVariableOp:0 f4 [48, 48, 5, 5]
00000000: 70d5 2a3d ec91 35bd 4442 23be 4586 99bd
00000010: 8a7d 43be 0dae fc3c bf4e 293e 4249 4dbc
00000020: 2ba2 89bd 6064 80be 0d70 333d 6cdc 413d
00000030: 0853 073e 5ba0 f8bd ae21 16be 2798 2cbd
00000040: 25ee 443c 7c7f 8f3e e6a4 353d 19f7 80bd
00000050: 779c 083b 7032 9fbd 6f50 3e3e 7859 0a3e
00000060: c800 103e a4c4 773d cc1c e93d 7abc 733e
00000070: 7587 e5bb d0c1 97bd b9f4 e83d b77c 1e3e
00000080: 2881 953d 0615 d83c bd99 723c 4cbc 373e
00000090: 32b8 f73d 9580 5dbd 2a7e 3fbd 61ab 833d
000000a0: 7988 d5bc 45fc 4dbd 581a abbd 6fd2 c9bc
000000b0: 9db7 4f3d e98e 28be 7326 d6bd 077f 70bd
000000c0: 6d21 95bd f35f 4e3c e83f 5dbd c467 01bc
000000d0: 1880 a13d 72a1 333d 1920 8b3c 7611 99bd
000000e0: 5f04 06be 6c3e 923c 066c b9bd b4b1 e1bd
000000f0: 2708 973d c115 8dbd 44e4 4c3d e25f 22bd
00000100: 0352 80be 6e28 c43c 4525 123d 91a4 a33c
00000110: fe73 f3bd f423 eebe 8579 0f3c 339d 0cbd
00000120: 4be8 0c3d a1c8 08be 5371 88be 812d 183d
00000130: e7d2 d43d 6c1b 62bd 24fe 46be 7476 ebbd
00000140: 4b96 bf3d d630 e23c 4585 c0bd 2fe0 4fbe
00000150: a579 163d 9ec1 a03c da84 f8bd c302 0dbe
00000160: e8e2 70bd a1da 8bbc 6379 01bd 9ada 0dbc
00000170: 1751 51bd ed02 0dbe 22a1 6cbe ba65 45bd
00000180: f15f dd3d 3a42 24be fc15 2bbe cb67 c8bd
00000190: 739d 1cbb ffad 9a3c 74ae 3839 f349 fe3b
000001a0: cf93 2f3d dd1e 91bc 8b72 12bd 0b9c fbbc
000001b0: 6faa 2e3d 2e97 d83c f96e 233d 14d1 173d
000001c0: 3921 08bd fdfa a6bb 9a07 27bd bfe3 08bd
000001d0: e99c e9bc a63f 2b3b 994d 963c 78a5 cebc
000001e0: 816d 1a3d 5a78 1d3d f536 57bd 0eb0 283d
000001f0: aaa0 a93b bc68 dfbc 32df 98bd f9bf 25be
00000200: c282 8ebd b2e4 38be 6dcb c6bd c34b b1bd
00000210: c1dc 00be e78a e33c 1317 b2bd 16f6 18be
00000220: 2dbc 18be e035 8dbd 1d42 023a 191f 0a3d
00000230: 4365 31be c35d a3bd 30f9 9dbd 177d dbb9
00000240: babd 093e 1a83 b5bd 1fd3 bcbd b419 82bd
00000250: b126 f0bc f02f 6f3b 6f0f 593d 13dd f83d
00000260: 6c5e 0e3e 5fac 8f3d 235c e2bd f0a2 85bd
00000270: f91c b33d 2012 153e e859 003d 9895 d1bd
00000280: aa4b 07bd 6010 2b3e b2b3 193e 3141 4c3b
00000290: 5ad6 0abe 6225 0abe 69ec df3d 69c7 a03d
000002a0: 672d abbc 615f 80bd d543 173e bdb1 f93d
000002b0: 2708 863d 7332 96bc b180 0fbe 935e 37bc
000002c0: 8492 8f3c d251 863d 610c 143d a938 f93d
000002d0: e3b6 e4bc 58d3 033d 6ced d8bc 487c 0d3d
000002e0: b343 093e dc15 34bc 3111 803d 8620 a23d
000002f0: 959a cc3d 2cfb c33d a619 6bbc 21a6 013d
00000300: 5134 503d 1472 843d 32d3 023e aab0 8a3d
00000310: bdb0 5e3d c4ca 1dbd 1749 953d 8611 423e
00000320: c15e 1bbd 5c19 02be ef26 74be 3044 7dbe
00000330: 7d88 4fbe 365f cd3d 6d2d febc ced6 a9bd
00000340: 77d3 56be 66c2 88be ea69 d4ba 01c0 72bd
00000350: 26b4 08be 9287 3cbe aa24 51be 173d 853d
00000360: bb26 3f3d 0348 51bc a488 833b 001e 0fbc
00000370: 7857 993d 3b6b 20bd 3815 003d 52d7 8a3d
00000380: e33a 363d 64a2 5f3d 9326 ff3c b16f 7a3c
00000390: cfb3 5d3d 6294 0c3d be12 873d 9c36 58bb
000003a0: 1eea fb3a 349c 0b3d f1dc b23c ae57 c0bb
000003b0: c9e7 583d d2b6 f6bc 4906 d23b 92ac 773d
000003c0: de9e 853d f956 3d3d b9d5 253c 8c3a 233d
000003d0: bf2b 663d 60d3 253d a929 47bc 2e04 ccbc
000003e0: cb96 193d 8d2c 313d 70b9 2ebd 7e50 86bc
000003f0: 8b19 ec3c 626e c23c 88f6 31bc 4caa 1c3d
0.041707456 -0.044328615 -0.15943247 -0.07496313 -0.19090858 0.030844713 0.16533946 -0.012529673
-0.06720384 -0.2507658 0.04380803 0.04732935 0.13215268 -0.121399604 -0.14661285 -0.04213729
0.012019669 0.2802695 0.044346713 -0.0629713 0.0020845213 -0.07773292 0.1858537 0.13510692
0.14062798 0.060490265 0.11382446 0.23802367 -0.007004673 -0.07410014 0.11374802 0.15477262
0.07300025 0.026377212 0.014807162 0.17942923 0.12095679 -0.054077704 -0.04675118 0.06429172
-0.026066052 -0.05028941 -0.08354634 -0.024636475 0.050712217 -0.16460766 -0.10456552 -0.058714893
-0.07281766 0.012596118 -0.054016024 -0.007898275 0.0788576 0.043855138 0.016983079 -0.074740335
-0.13087605 0.01785203 -0.09053807 -0.11020222 0.07374602 -0.06888915 0.05002238 -0.039642222
-0.2506257 0.02394506 0.035680074 0.019975932 -0.11887358 -0.46511805 0.008757 -0.034329604
0.03440122 -0.13357784 -0.2664896 0.03715277 0.10391789 -0.055201933 -0.19432884 -0.114972025
0.09354838 0.027611177 -0.09400419 -0.20300363 0.036737103 0.019623574 -0.121347144 -0.13770585
-0.058810145 -0.017072024 -0.031609904 -0.008658076 -0.051102724 -0.13770647 -0.23108342 -0.048192717
0.10809315 -0.16040888 -0.16707605 -0.09785422 -0.0023897558 0.018881796 0.00017612596 0.0077602803
0.04286557 -0.017714912 -0.035753768 -0.030714056 0.042643007 0.026439276 0.039900754 0.037064627
-0.03323481 -0.005095838 -0.040778734 -0.03342032 -0.028517203 0.0026130467 0.018347548 -0.025225386
0.037702087 0.038444854 -0.052542645 0.041183524 0.0051766234 -0.02727162 -0.07464446 -0.16186513
-0.06958534 -0.1805599 -0.09706769 -0.086570285 -0.12584211 0.027776195 -0.08695807 -0.14937624
-0.14915533 -0.068950415 0.0004968958 0.033721063 -0.17323785 -0.07976868 -0.07713544 -0.00041864134
0.13451281 -0.08862896 -0.09219956 -0.06352559 -0.029315325 0.003649708 0.052993234 0.121515416
0.13903207 0.07015299 -0.1105273 -0.065252185 0.087457605 0.14557695 0.03133574 -0.10233611
-0.033031143 0.16705465 0.15009955 0.0031166787 -0.13558331 -0.13490823 0.109337635 0.078505345
-0.020895673 -0.06268192 0.1477197 0.12192104 0.06544524 -0.018334603 -0.14013936 -0.011191982
0.017525919 0.06558575 0.036144618 0.1216901 -0.027919238 0.032183975 -0.0264804 0.034542352
0.13404731 -0.01099154 0.06253279 0.079163596 0.09990422 0.095693916 -0.014349377 0.031652573
0.050831143 0.06467071 0.12775877 0.06771977 0.05436777 -0.03852345 0.072893314 0.18951997
-0.03793216 -0.12704986 -0.23842977 -0.24733043 -0.2026691 0.10027926 -0.03102752 -0.08292924
-0.20979105 -0.26710814 -0.0016205881 -0.05926514 -0.13349971 -0.18411091 -0.20424142 0.065057926
0.046667796 -0.012773517 0.0040140916 -0.00873518 0.074873865 -0.039164763 0.031270236 0.0677935
0.044489753 0.054598227 0.031146323 0.015285418 0.054126557 0.034321196 0.06595372 -0.0032991534
0.0019219553 0.034084514 0.021833869 -0.0058698272 0.052955423 -0.030116472 0.0064094407 0.06046731
0.06524442 0.04622552 0.010121756 0.039850757 0.056194063 0.040484786 -0.012155929 -0.024904337
0.037497323 0.043255378 -0.042657316 -0.016395804 0.028820774 0.023734275 -0.010862 0.038248345

sequential/conv2d_2/BiasAdd/ReadVariableOp:0 f4 [48]
00000000: f356 75bd 17d6 823e 1b3f abbd fd62 cbbd
00000010: 4b0a 4d3d d516 dcbc 6437 8bbd e3e0 a0bc
00000020: 142e 553e c0d3 4abe c2e8 f7bc f22d 663e
00000030: 8724 4a3c 08fb debd 3906 13bd 6c27 5dbd
00000040: cab1 a8bc 16c5 cdbd 96e4 1bbd 11b5 82bd
00000050: d013 833e cad4 843e 39bf 70bd e465 65bd
00000060: e061 41bd 5b6e 63bd f647 0dbd 0503 91bd
00000070: 43fc 3cbc 504b 13bd 28ea 8bbd 8ade bfbd
00000080: 0cd9 bcbc 82b0 f63c 9f22 d5bc 3373 a0bd
00000090: 03df 7c3e f3ee 45bd 13c5 99bd 37fa 6a3e
000000a0: bdc0 8cbd 6e35 0ebe 8993 703e 1770 c9bc
000000b0: 1ebb f1bb 5e3d 8bbc 78fa d0bd fef2 26bc
-0.059897374 0.25553963 -0.08361646 -0.0993099 0.050058644 -0.026866356 -0.06797674 -0.019638484
0.20818359 -0.19807339 -0.030262355 0.22478464 0.01233781 -0.10887724 -0.035894606 -0.053992674
-0.020592589 -0.10047357 -0.038059793 -0.06382192 0.25601053 0.25943595 -0.058776114 -0.056005374
-0.04721248 -0.055525165 -0.034492455 -0.07080654 -0.011534753 -0.035960495 -0.06831771 -0.09368618
-0.023052715 0.030113462 -0.026017485 -0.078344725 0.24694447 -0.048323583 -0.07508292 0.22947012
-0.068726994 -0.1388757 0.2349378 -0.024589581 -0.0073770424 -0.016997036 -0.10204023 -0.01018977

sequential/conv2d_1/Conv2D/ReadVariableOp:0 f4 [48, 32, 5, 5]
00000000: 6231 ddbd 5ec8 83bd 6e77 773d 82f6 d73d
00000010: 66d1 d3bc e415 f1bd 1739 cdbc 2ba5 243d
00000020: c3b1 193d c15c d33b 892c 23be b930 50bc
00000030: c22e d63d 1e7f c63c 0a1a 36bd a378 25be
00000040: af55 b33d 331b 093e 92ce 5fbb 18e0 d93c
00000050: 9cef a3bd a856 c33d d1a4 44bd ac67 86bd
00000060: 8a58 bc3d b3d2 c7ba 5335 a3bd 4abb 1dbd
00000070: 36dd 1a3d 4949 3c3d dcba 03bc 1c54 8c3d
00000080: 4f53 153d edc2 14bd ba50 8a3d 0ecc 68bc
00000090: fc4e 943d b8b3 6b3c a67a 0d3e 29ad ea3d
000000a0: 1d7a e23d 944b 863d cb41 da3c f4c3 8d3d
000000b0: 7d31 a73d 7477 b5b9 42b2 ad3d b6a1 ef3d
000000c0: 06b0 37bd 5735 653d c601 86bc b56a 30bb
000000d0: 54d7 d23c fb45 053d de92 313d 98c9 80bd
000000e0: f875 2b3d 86fb 053d 4bd0 5e3d ca0a aa3d
000000f0: ba87 c9bd 7d4e 27bd ebac 603d a253 433d
00000100: 21a4 333e 8327 27be 5269 573a 5857 cfbc
00000110: 8948 8f3c 7cdb 5e3d 92d7 fd3c 9d64 c83c
00000120: 603d 313d fe1c 5bbc bbc2 ed3c ef5c e1bd
00000130: 9dda 13be daea 96bc 7286 ecbd fc85 cdbd
00000140: 7b91 7abd 33f1 c83d bf95 163d 3caf 46be
00000150: 3c0b e0bc 8812 d43d 2189 c3bd f621 13be
00000160: a788 063e 1dfe 173e 467a bbbd 202c 67be
00000170: 6f24 3f3e 0b43 883e 4347 65bd ce76 d8bd
00000180: 50bc 9dbd 462a b03d c7b6 b1bd f7ed 4cbe
00000190: 815f 393d 2793 1ebc 8397 d6bd f65d 813c
000001a0: 4319 a43d 752b 193e d9ad 31bd 8d12 253d
000001b0: a289 4e3d 9c12 3ebd b6ef 2c3d b9bd 183c
000001c0: 4d7f 1c3e 5c9a f83d 01ec fb3d 0d67 0a3b
000001d0: 2de4 503e f35d ec3d 3b4a 243d dd86 a93c
000001e0: f1e3 103d 6a09 ed3d 9101 6bbc 5de6 973d
000001f0: 4ba3 bf3d 76dc d0bc 6e81 78bd 2cca 16be
00000200: 4628 a2bd 23f0 c33c f42f 8dbd 8f47 953c
00000210: 4473 223d 08d9 c13d 21cc ae3d f855 ffbd
00000220: ff06 b3bd a685 2c3a dd37 a63d 4ef0 d03c
00000230: 0a02 0abd 3496 b6bd 218e 403d f722 be3d
00000240: f31d b73b 9aaa 16bd 8568 523c 4e66 08bd
00000250: 02ea b7bd e6b0 6e3b a127 913d 9a1f dfbb
00000260: eaa0 31be 2542 27be 9a11 af3c 59f0 9ebd
00000270: 8646 66be e093 37be 4b58 b9bc 6d25 893d
00000280: 2a19 53be 69f2 37bd d0ff 1f3e 53e3 393e
00000290: 2628 c83d 0f37 1d3d 4df2 80bc 6004 a63c
000002a0: 078e 05bd 4170 c8bd a046 8abd beb6 d1bd
000002b0: 7898 02be 14c2 c83c e332 31bd 55cd f03b
000002c0: 7320 debc 4a0a c2bd b535 1dbe ae6c f9bc
000002d0: 8a71 633c 5d28 0cbd ebac adbd 1dd8 24bd
000002e0: b4eb c0bc ff88 893d d208 023e 7e14 703b
000002f0: aa7f e1bd 8c77 1e3c 6450 783d 0a55 c03d
00000300: a35d 983d 8319 87bd a384 1abe b57a 42bd
00000310: 3042 913a ecd5 343d b8f9 5ebd 163f 06be
00000320: b38b 27bd 0ee7 e3bd 18dd bcbd 81a8 b1bd
00000330: 5661 9b3c a2ec e0bb ab0d 36be a12f 38be
00000340: f8c1 b7bd 8e4b b4bd 7c76 20be cd4d 57be
00000350: 270f d6bc 0ef5 593d 0916 48bd 8c72 8fbd
00000360: 021d 80be ef09 f4bc f377 28bd cf79 28be
00000370: 0657 05be 7bd1 f8bd 7d32 153d 7b7e 02bd
00000380: e36c e0bd 1170 19be 4b4a e0bd c023 0ebe
00000390: e804 5cbe 72a1 6bbe 627e d7bd f9c1 e5bd
000003a0: 0261 59be e890 8abe dbc0 1cbe acf6 ffbd
000003b0: 7b79 b0bd 79bd 38be 1552 17be 0e39 2dbe
000003c0: c9c3 1ebe 0ffe 95be 375b ddbc b58f 1dbd
000003d0: 3c31 2cbe 0191 23be 87f8 05be 7b47 1cbc
000003e0: 4d6e 883a 9f2b 1fbe e786 d4bc 4d5d debc
000003f0: cb80 d0bd ec81 62bd e2cc 29bd 3f09 913c
-0.10800435 -0.064347014 0.06041663 0.105450645 -0.025856685 -0.117717534 -0.025051637 0.04019658
0.037523042 0.006450266 -0.15934958 -0.012706929 0.10458137 0.024230536 -0.044458427 -0.161593
0.08756577 0.13389282 -0.0034150225 0.026596114 -0.08004686 0.09538013 -0.048008744 -0.065627426
0.09196575 -0.0015245288 -0.07969155 -0.03850869 0.03780862 0.045968328 -0.008040156 0.0685198
0.036456402 -0.03631871 0.067536786 -0.014208807 0.072416276 0.01438611 0.13816318 0.11458809
0.110584475 0.06557384 0.0266427 0.06922141 0.08163736 -0.0003461201 0.084812656 0.11700766
-0.044845603 0.055959072 -0.016358268 -0.002691907 0.025737442 0.03253744 0.043352954 -0.06288451
0.04186055 0.032710575 0.054397862 0.08302839 -0.09840341 -0.040846337 0.054852407 0.04768718
0.17543079 -0.16323666 0.0008217293 -0.025310203 0.017490642 0.054408535 0.030986581 0.024462039
0.043271422 -0.0133736115 0.029023519 -0.11004054 -0.14438863 -0.018422533 -0.11549081 -0.10035321
-0.061173897 0.0981163 0.036763903 -0.19402784 -0.027349107 0.10355097 -0.0954764 -0.14368424
0.13138066 0.1484303 -0.09154181 -0.22575426 0.18666242 0.2661365 -0.055976164 -0.10569535
-0.077019334 0.08601813 -0.0867744 -0.20012651 0.045257095 -0.009678639 -0.10478117 0.015791874
0.08012631 0.14957984 -0.043378685 0.040300895 0.050424226 -0.046404466 0.042220794 0.009322577
0.15282936 0.12138817 0.123008735 0.0021118552 0.20399542 0.11541357 0.040109854 0.02069419
0.035373632 0.11574061 -0.014343635 0.07416985 0.093573175 -0.025495749 -0.06067031 -0.1472556
-0.07917838 0.023918217 -0.06893912 0.018222598 0.039660707 0.094652236 0.08535028 -0.12467569
-0.08741569 0.00065811945 0.08116124 0.025505211 -0.03369335 -0.08915368 0.047010545 0.09284013
0.005588287 -0.036783792 0.012842302 -0.03330069 -0.0898018 0.0036421358 0.07087637 -0.006809187
-0.1734654 -0.16333826 0.021370698 -0.077606864 -0.2248784 -0.17927504 -0.02262511 0.066965915
-0.20615068 -0.044908915 0.15624928 0.18153124 0.09773283 0.038382586 -0.015740538 0.020265758
-0.03260615 -0.09787036 -0.06751752 -0.102399334 -0.12753475 0.024506606 -0.04326142 0.0073486962
-0.027115082 -0.09474619 -0.15352519 -0.03044733 0.01388205 -0.03421818 -0.08480247 -0.040245164
-0.023549892 0.06715583 0.12698677 0.0036633308 -0.11010678 0.009672057 0.06062354 0.0939122
0.07439735 -0.06596663 -0.1508966 -0.047480304 0.0011082347 0.044149324 -0.05443737 -0.13110003
-0.040904712 -0.111280546 -0.09221858 -0.08674718 0.018967312 -0.0068641463 -0.17778651 -0.17986919
-0.089725435 -0.088034734 -0.15670198 -0.21025772 -0.026130272 0.053212218 -0.04884914 -0.0700427
-0.2502213 -0.029789893 -0.041130017 -0.16452716 -0.13021478 -0.1214933 0.036425103 -0.031858902
-0.109582685 -0.14984156 -0.1095167 -0.13880825 -0.21486247 -0.23010805 -0.105221525 -0.11218638
-0.21228412 -0.2706368 -0.15307944 -0.12498221 -0.086169206 -0.18041028 -0.14777406 -0.16916296
-0.15504374 -0.29295394 -0.027021034 -0.038467128 -0.16815656 -0.15973283 -0.13083087 -0.009538527
0.0010408849 -0.15543984 -0.025943233 -0.027144099 -0.10180815 -0.055299684 -0.041455157 0.017704604

sequential/conv2d_1/BiasAdd/ReadVariableOp:0 f4 [48]
00000000: c86e 91bd 582c 9d3c c4ef 6fbd 6963 47bd
00000010: e769 9fbc db20 27be d75d b33c f4e6 ac3d
00000020: 8130 ae3d 79ca 2cbd afe0 58bd ebbd d03d
00000030: 43df d8bd 0013 55be e85a 2ebd 4016 1a3e
00000040: f78c 4cbd e674 3c3e 09f5 233d bff4 14bd
00000050: f26a 3e3d aff4 95bc dda5 dd3c 2736 88bd
00000060: ec09 df3d 7005 40bd 23fd 983c 2500 943d
00000070: ee76 013e 08d2 e9bd eb12 c9bd 6b6c 2ebd
00000080: 5db6 afbb 1fbd 95bc e221 813d 4d71 97bc
00000090: a0e0 a0bd 994c 5e3c cd80 c4bc 889d 1d3b
000000a0: 584d 0b3d 922f 673c 85c2 edbc 8149 703e
000000b0: 3d08 6dbd ec94 d7bd 9ad6 3b3e ba5e 563d
-0.07101208 0.019186184 -0.058578268 -0.04867879 -0.019459678 -0.16321127 0.021895332 0.08442488
0.08505345 -0.04218528 -0.05294865 0.10192474 -0.10589459 -0.20808029 -0.042567164 0.1504755
-0.049939122 0.18403968 0.040028606 -0.03636622 0.04648871 -0.01830515 0.027056629 -0.06650954
0.10890564 -0.046880186 0.018675392 0.0722659 0.12643024 -0.114170134 -0.098180614 -0.042583864
-0.0053623156 -0.018278657 0.06305291 -0.018486643 -0.07855344 0.013568067 -0.023987198 0.0024050195
0.034009308 0.014110463 -0.029023418 0.2346554 -0.057869185 -0.105264515 0.18343583 0.052336432

sequential/conv2d/Conv2D/ReadVariableOp:0 f4 [32, 3, 5, 5]
00000000: a8b6 0d3e 5701 4b3e 650c 8e3d 10c5 ab3d
00000010: 147f 21be 34a6 b43d c7e0 383e ecba 953d
00000020: 59b7 b0bd 7da2 43be 12c6 303e 531f 673c
00000030: d6bc 75bd 891e 50bd ccf1 dfbd d797 423e
00000040: 38ef d83d ea7b aebd 471b 3c3c 32f3 febd
00000050: 69d8 ab3d f76d aa3d 4291 c2bd 9f0e 12bd
00000060: 9380 25be 562a f03d 0079 023e d2f0 493c
00000070: 2c0f 82bd 3ee3 07be ab71 b93d 3e14 863d
00000080: cb3e 8a3a 2e51 e7bd 2124 34be 8b36 e83c
00000090: 48ff 1bbd 86db cdbd 424c 1abe f79f 33be
000000a0: 8e54 223c 59ba 0c3d 648a 07be c1dd 96bc
000000b0: cf7f 14be f2ca 563d 3cb0 773d 1e85 f4ba
000000c0: 5a11 1dbe 7016 4dbe 6f09 303e c565 c53d
000000d0: 969a af3d 76e7 753d a39b 80bd 459b 1c3e
000000e0: 68c0 0c3e cec4 e9bc 0ec7 8fbb 66ae e2bd
000000f0: b8bb 093e cdda 663d 95db 1bbc 1b90 96bc
00000100: 6dff 09be feb7 0a3e 5506 453d 2c82 793d
00000110: cc23 db3c 1e4e 60bc 0b62 5a3b dce8 8e3d
00000120: 5478 47bc 8a83 3d3d 64cc cdbd e1e5 473d
00000130: 0aa6 003c fe40 15be 92a8 283d d0e1 f6bd
00000140: ad2b 39bd 0114 013d 62b8 78bd 2bc7 943d
00000150: 9123 623c 57b1 91bc d81a 08be 038e 34bd
00000160: 4868 d73d 9dac 2d3d b8eb debd 09cd 34be
00000170: 3163 95bd 4172 213d 3bb8 23bd 6711 65bc
00000180: 897d a2bd c081 4dbd dd61 4bbd 99a5 6d3d
00000190: c09e 013c 18d2 ffbd 7f55 e8bc 34e9 c5bb
000001a0: c796 c0bd 6d0a ce3d e36f b0bc 3bf8 9cb9
000001b0: c492 f03d 9ae2 6bbb 99ce fbbd a207 d5bd
000001c0: 3e43 ebbd 0048 f4bc 7f6c db3c a970 7dbd
000001d0: 3b3a 8bbd b962 34ba 968d 9a3d ccfd 9a3d
000001e0: a33c 2d3d 0bab 71bd 37d7 9fbd 4f11 a4bc
000001f0: 8ae8 073a 8f50 b13d 575b bdbd 3dc4 acbd
00000200: 783b 073c 8f20 a2bd dbd8 9e3d c379 4dbb
00000210: e774 bdbd 9400 bd3c dbde 413c 2a11 84bd
00000220: 3379 15be 88d1 fabd 7208 93bb 3671 8b3b
00000230: 39d8 0ebd 6f78 2abe 7dde 04bd 9573 d03d
00000240: 8824 d5bc c590 ee3c cc7a 4abd d501 fabd
00000250: a77b b9bc d22a 53bc 2ce1 3c3c 2e48 33be
00000260: d58a 44bd 2794 4abd 9b67 bbbc 57c1 e1bd
00000270: 83c6 edbd e998 f73c f9b7 383d ee97 d3bd
00000280: 2ce8 adbd d867 3bbe 871b f8bd 080b bf3c
00000290: 2f14 a23c 67f6 05be 0df1 39bd 542e 3abd
000002a0: 3381 583c 211e aabd 8bd8 c13d 1e9e e3bc
000002b0: 5e05 8e3c 4305 893d 3515 ce3d 8595 19bc
000002c0: e6ce 09be 7df3 0ebd dba8 3d3d 86ec 38bd
000002d0: 016f b8bc 3bc2 02bc 72aa af3d 7f0b 823d
000002e0: 2339 19bd 1472 0bbe 993c 1bbe fdda 523c
000002f0: 9c97 d5bb d4a6 adbd d543 23bd 4499 febd
00000300: bea6 af3b f5c4 1abe d529 5fbd fa01 3d3d
00000310: f6b0 42bd a247 1fbb de39 b9bd 77df 513d
00000320: 7f62 bb3d bf41 14bd 61f4 dd3b 45db 593d
00000330: add8 18bd 15fb 963d 0b47 b4bd 8896 9bbb
00000340: 4ba0 463d 6ca1 34bd 494d edbd 30d0 d4bd
00000350: 8545 f63c 4b71 6cbd 8cbd cfbd 91c3 f4bd
00000360: 9f2d 4e3c b5e0 52bd 6cf5 8cbd 7de8 b3bc
00000370: bbaf bc3d 3841 873c 28cd 49bd 1fa7 7ebd
00000380: c04b 733d 7a49 593e 214b 14bd 9f70 bc3d
00000390: 81a7 8e3d 3949 023c 927d 503d 6799 d9bc
000003a0: 967f 8c3d 3f44 85bd 21bb cbbd 8379 adbd
000003b0: fa10 26be fd4b 13bd 9320 91bb 08e7 8abd
000003c0: f801 29bd 5ed2 e33c e9d2 cf3c f04f 0f3e
000003d0: 6eea e43d 372e 3d3d 050f 8f3d 2ac8 a53d
000003e0: 6776 7b3d 20b7 ecbc 726e 393e aa4c 76bd
000003f0: e8f7 753d de43 c5bd 01e5 043d 036c 933d
0.13839209 0.1982473 0.06935958 0.08387196 -0.15771133 0.08820763 0.18054496 0.07311043
-0.08628721 -0.19104953 0.17263058 0.014106589 -0.05999454 -0.05081037 -0.10934791 0.19003235
0.10592502 -0.085197285 0.011481113 -0.124487296 0.08390886 0.083217554 -0.09500362 -0.035658475
-0.16162328 0.11726825 0.1274147 0.012325482 -0.0635055 -0.1327028 0.090548836 0.0654683
0.0010547278 -0.11294781 -0.17591907 0.02834632 -0.038085252 -0.100516364 -0.15068153 -0.1754149
0.009907855 0.034357402 -0.13236386 -0.018416287 -0.1450188 0.052439637 0.060470805 -0.0018655395
-0.1533865 -0.2002809 0.17191099 0.096385516 0.08574407 0.06003519 -0.06279685 0.15293606
0.13745272 -0.028536227 -0.004387743 -0.1106842 0.13450515 0.05636101 -0.009512802 -0.018379262
-0.13476343 0.1354675 0.04810174 0.060915157 0.026750468 -0.0136905 0.0033322598 0.06978008
-0.012174685 0.046268024 -0.1004875 0.048803214 0.007852087 -0.14575574 0.041176386 -0.12054789
-0.045207668 0.031513218 -0.060722716 0.07264551 0.013802425 -0.017784758 -0.1329149 -0.044080745
0.10517937 0.042400945 -0.108848035 -0.1765634 -0.0729431 0.0394156 -0.039970618 -0.0139812
-0.079341 -0.050172567 -0.049653877 0.058019254 0.007911384 -0.12491244 -0.02836108 -0.006039763
-0.094037585 0.10060582 -0.021537727 -0.00029939585 0.11746743 -0.003599322 -0.12295265 -0.104018465
-0.11487435 -0.029819489 0.026785133 -0.06187502 -0.06798216 -0.0006881166 0.075465366 0.07567939
0.042294156 -0.05900101 -0.07804721 -0.020027785 0.00051844923 0.086579435 -0.09245937 -0.08435867
0.008253925 -0.07916366 0.07756206 -0.0031353093 -0.09250813 0.023071565 0.011832918 -0.06448586
-0.14597015 -0.12246996 -0.0044870907 0.004255439 -0.034874175 -0.16647504 -0.032438744 0.101782955
-0.026018396 0.029121766 -0.049433514 -0.12207381 -0.02264197 -0.012888627 0.0115282945 -0.17508003
-0.047983963 -0.049457695 -0.022876551 -0.11023205 -0.11610129 0.03022428 0.045097325 -0.10331713
-0.08491549 -0.18301332 -0.121146254 0.02332069 0.019785015 -0.13082276 -0.0453959 -0.04545434
0.013214397 -0.08306528 0.094651304 -0.027785357 0.017336544 0.06690457 0.10062639 -0.009374027
-0.13457832 -0.034900177 0.04630361 -0.04514744 -0.022513868 -0.007980878 0.08577432 0.06349849
-0.037408005 -0.13617736 -0.15159835 0.012869594 -0.0065183174 -0.084790856 -0.03985961 -0.12431577
0.0053604534 -0.15114196 -0.054483254 0.046144463 -0.047532044 -0.002430417 -0.090442404 0.051238503
0.09149646 -0.036195513 0.006773517 0.053187627 -0.037316013 0.07372109 -0.08802613 -0.0047481693
0.04849271 -0.044099256 -0.115870066 -0.10391271 0.030062446 -0.057725232 -0.10143575 -0.11951364
0.012584119 -0.05148383 -0.06882748 -0.021961445 0.092132054 0.01651059 -0.049267918 -0.062171098
0.059398413 0.21219435 -0.03620446 0.09201168 0.069655426 0.007952028 0.050901003 -0.026562406
0.068602726 -0.065071575 -0.099478014 -0.08470442 -0.16217414 -0.03596114 -0.004428932 -0.06782347
-0.041261643 0.027810272 0.025369124 0.13995337 0.111775264 0.046186652 0.069852866 0.08094819
0.061392214 -0.028895915 0.18108538 -0.060131706 0.060050875 -0.09632085 0.032444958 0.07198336

sequential/conv2d/BiasAdd/ReadVariableOp:0 f4 [32]
00000000: 8c7e d9bc 794b 8c3c 97f0 9d3d 5bbc 393d
00000010: b9b4 363d 9e4c f0bc ce6e 7e3c e699 54bd
00000020: 1a8a bcbd 28ce b03d 01c2 963c 40c3 833c
00000030: a768 17bd 1a65 a63d 76fd 2a3e 27f7 723d
00000040: 7123 503c 1def 4b3e 31ad e1bd 8bb2 273d
00000050: ad29 0bbd 5f3a 293d 9fde c73c 826b f7bc
00000060: 528a 1d3e 4ea0 2e3d d557 67bd 6077 2a3e
00000070: 7997 08bc d495 593c 4e64 bf3c a5fb d0bc
-0.0265496 0.017125832 0.077119045 0.045345645 0.044605944 -0.029333409 0.015529348 -0.05190458
-0.09206028 0.08633071 0.018403055 0.016084313 -0.03696504 0.08124752 0.1669825 0.059317734
0.012703762 0.19915433 -0.11019362 0.040941756 -0.033975292 0.041315433 0.024398146 -0.03020263
0.15384796 0.042633347 -0.056480248 0.166471 -0.008336895 0.013280351 0.023363259 -0.025510618
