models/classification_model_v3.onnx (onnx, 456761 bytes, 12 tensors)

sequential_1/dense_5/MatMul/ReadVariableOp:0 f4 [64, 2]
0.28132454 0.010778739 0.2638509 -0.097227246 0.22752608 0.21949643 -0.2209131 0.2655786
0.032000463 -0.07223505 -0.17975847 0.41313455 0.2525584 -0.29191458 -0.030231038 0.28935555
-0.27245933 0.1691607 0.23235461 -0.06297653 0.29487914 0.2458179 0.06858585 -0.07784722
-0.44716468 0.56223744 0.34819826 0.13841239 0.1089671 -0.30299634 -0.19749972 -0.2537645
0.00992157 -0.0023699435 -0.1745411 0.43006375 -0.12366154 -0.2894796 0.11638279 -0.17790626
0.050301664 -0.2720085 -0.23071283 -0.27530825 0.0022794553 0.23008901 -0.029107014 -0.2876104
0.2597536 0.18129595 0.009723501 -0.08108559 -0.22924209 0.16631716 0.25364894 0.014247064
0.287512 0.2561281 -0.2767235 0.30864647 0.013741596 0.01358832 -0.19062112 0.4919052
-0.27379268 0.59788436 -0.08876715 0.5195298 0.20583344 -0.061962087 -0.15287305 0.19309998
0.2759928 0.03151326 -0.018118251 -0.22370964 -0.5392753 0.57296014 0.045246083 0.14230146
-0.3950902 -0.045469604 -0.2885336 0.28513563 -0.05417388 -0.29444847 -0.08222246 -0.23961842
-0.19485065 -0.014676882 0.31769276 0.11302449 -0.43834698 0.38238773 -0.13556944 0.4370114
-0.06489643 0.178909 -0.20143688 -0.24980588 -0.060314924 0.2713286 0.12946832 -0.15726231
0.23558919 0.05578997 0.24357344 0.0042851693 0.068728864 0.08434944 0.17894103 0.046185855
-0.4081493 0.04752392 0.099879876 -0.0017029413 0.31431636 0.049845006 -0.276002 0.4425242
0.048604593 -0.14660157 -0.0817962 -0.15684034 0.08811779 0.0068114954 0.10399964 -0.19810838
00000000: c509 903e 4f99 303c 7717 873e 141f c7bd
00000010: 99fc 683e acc3 603e 0b37 62be ebf9 873e
00000020: eb12 033d f8ef 93bd 9b12 38be 5f86 d33e
00000030: 564f 813e d475 95be 15a7 f7bc 6926 943e
00000040: ca7f 8bbe 7638 2d3e 5eee 6d3e d7f9 80bd
00000050: 66fa 963e b0b7 7b3e bd76 8c3d 5d6e 9fbd
00000060: c5f2 e4be cbee 0f3f 0b47 b23e fabb 0d3e
00000070: 252a df3d 5622 9bbe 5e3d 4abe 6ced 81be
00000080: 158e 223c 0e51 1bbb e7ba 32be 5131 dc3e
00000090: 4342 fdbd ac36 94be 1a5a ee3d 0f2d 36be
000000a0: 1e09 4e3d b344 8bbe fc3f 6cbe 34f5 8cbe
000000b0: ea62 153b 749c 6b3e d571 eebc ac41 93be
000000c0: 6dfe 843e a5a5 393e 524f 1f3c 3410 a6bd
000000d0: 70be 6abe 0c4f 2a3e 46de 813e 846c 693c
000000e0: c634 933e 3923 833e b4ae 8dbe e906 9e3e
000000f0: 6e24 613c 8ca1 5e3c 2f32 43be 00db fb3e
00000100: 8e2e 8cbe f30e 193f 8dcb b5bd e8ff 043f
00000110: 00c6 523e f5cb 7dbd c18a 1cbe 00bc 453e
00000120: ee4e 8d3e 0c14 013d ba6c 94bc 2414 65be
00000130: f20d 0abf 84ad 123f f553 393d 79b7 113e
00000140: 4349 cabe 563e 3abd adba 93be 4cfd 913e
00000150: 6ee5 5dbd f3c1 96be 4064 a8bd 885e 75be
00000160: ee86 47be 4e77 70bc a0a8 a23e 6279 e73d
00000170: 046f e0be 53c8 c33e b7d2 0abe f5bf df3e
00000180: 6be8 84bd ec33 373e 7845 4ebe 1dcd 7fbe
00000190: c80c 77bd 95eb 8a3e 5893 043e 5f09 21be
000001a0: 4b3e 713e 0684 643d 516b 793e 9b6a 8c3b
000001b0: b8c1 8c3d 66bf ac3d 513c 373e 612d 3d3d
000001c0: f2f8 d0be 71a8 423d d28d cc3d 3a35 dfba
000001d0: 13ee a03e 472a 4c3d 2250 8dbe 8892 e23e
000001e0: 9c15 473d b91e 16be c484 a7bd c19a 20be
000001f0: 1a77 b43d f732 df3b c3fd d43d ecdc 4abe

sequential_1/dense_5/BiasAdd/ReadVariableOp:0 f4 [2]
-0.16136658 0.1613666
00000000: 483d 25be 493d 253e

sequential_1/dense_4/MatMul/ReadVariableOp:0 f4 [128, 64]
0.120820366 -0.07538279 -0.120844476 -0.12125505 -0.117748 -0.16904137 0.12654747 -0.09335716
-0.008680865 0.2224975 0.0475749 0.065557644 0.054543965 -0.04977976 0.097763754 0.032474186
0.09987212 0.08195146 0.1860468 0.11737504 0.02820973 0.13817441 -0.09769564 -0.035666358
0.1591165 -0.116802394 -0.12634988 0.09182317 0.14657529 -0.117426515 -0.03731896 -0.19751716
-0.119195044 0.09726861 -0.04346016 0.050084975 0.14659373 -0.09687852 -0.12258843 -0.14403835
-0.25966805 -0.09989929 0.23739117 -0.051256843 -0.010764619 0.096835904 -0.13088658 -0.06705158
0.00015128395 -0.11281935 -0.052152056 -0.07209728 0.2228359 -0.13009259 0.13577361 -0.0359031
0.024362843 0.049597956 0.23675714 0.10735021 -0.025062637 0.18696885 0.20848683 0.0612536
0.21282282 -0.07088716 -0.09018058 0.042971026 0.19710416 -0.20854314 0.007225996 -0.08644566
-0.0773758 -0.1089403 0.1552156 0.19006273 -0.07665182 -0.006024652 0.2344118 0.1392184
-0.018463725 -0.079085924 0.043319877 -0.13043647 -0.055740308 0.10103898 -0.24515712 0.1418765
0.17500865 -0.078079104 -0.18613148 -0.12448305 0.07291476 -0.12655169 -0.035769306 0.04900383
-0.23057729 -0.047052816 -0.022569302 -0.23150134 -0.05623874 0.10089892 -0.22912364 -0.093819655
-0.14434706 -0.01936327 0.24083012 0.019650463 -0.09711902 -0.06594824 -0.21865731 -0.1754419
-0.123664044 0.23306848 0.010994413 0.02262465 0.01741612 0.23998728 -0.14096953 0.23201238
-0.26236886 -0.07836592 0.022349874 0.07958317 -0.06790633 0.040669005 -0.05647389 -0.012633018
0.005097844 0.0020750493 -0.061253913 -0.08608578 -0.10815039 -0.13210495 0.16699392 -0.14693743
-0.046302024 0.11728617 -0.04226907 0.13901962 0.0443665 -0.055031877 0.06480976 -0.034164153
0.07687051 0.122220784 -0.12696087 0.020552179 -0.1350448 0.03056427 -0.009765919 0.033378392
0.08122083 -0.14455478 0.0633665 0.19348031 -0.020636875 -0.19137798 -0.09657721 -0.053189114
-0.031913098 -0.07294911 0.14679103 0.008026025 -0.09003336 0.10638137 -0.07122453 -0.07230866
0.12771383 0.046664044 0.12619728 0.023136893 -0.16224796 0.078892045 0.061234616 -0.0025734343
0.11644878 -0.13138688 0.08869149 0.10561306 -0.03070446 -0.11686132 0.071957 0.016990118
0.15024818 0.020516321 0.19486834 0.0745509 0.08292158 -0.121420145 0.118000604 -0.10820752
0.14773127 0.11899791 0.072180815 -0.13996236 -0.1026241 -0.17743854 0.1778285 -0.24488781
0.0020315049 -0.097536705 0.13657135 -0.06160588 -0.11016555 0.019403221 0.05728425 0.16189963
-0.023071187 -0.22448161 0.12953632 0.1300236 0.03407567 0.1250579 -0.07851528 0.040871933
0.06517988 -0.07841054 0.023124339 -0.01301804 0.035421457 -0.09266881 -0.096966535 0.1283014
-0.011123076 -0.11401246 0.06320702 -0.004815519 0.046400633 -0.026973058 0.12258506 -0.14452142
-0.14203325 -0.1982958 0.20962967 -0.035670478 -0.20351428 -0.0012364632 -0.05127355 -0.0036102643
-0.18888146 0.1318998 -0.054037217 -1.9291838e-06 -0.06254263 -0.0465998 -0.11997352 0.18416308
-0.16608065 -0.12177229 0.000863102 -0.014838571 0.1631875 -0.113426566 0.19826621 0.046644177
00000000: ab70 f73d 4b62 9abd 4f7d f7bd 9154 f8bd
00000010: dd25 f1bd 2e19 2dbe a995 013e 0a32 bfbd
00000020: 303a 0ebc 62d6 633e e6dd 423d 1643 863d
00000030: 7e69 5f3d dde5 4bbd 5d38 c83d a703 053d
00000040: c189 cc3d 2bd6 a73d 0d83 3e3e 5362 f03d
00000050: 1718 e73c 987d 0d3e a714 c8bd e316 12bd
00000060: 70ef 223e 1836 efbd dd61 01be c90d bc3d
00000070: d517 163e 507d f0bd c4db 18bd f041 4abe
00000080: 881c f4bd c434 c73d 4803 32bd e725 4d3d
00000090: ab1c 163e 3f68 c6bd a50f fbbd ca7e 13be
000000a0: 36f3 84be 0098 ccbd ac16 733e b2f2 51bd
000000b0: 165e 30bc e751 c63d 2207 06be 5752 89bd
000000c0: faa1 1e39 d50d e7bd 659d 55bd bda7 93bd
000000d0: 182f 643e fe36 05be 3d08 0b3e 210f 13bd
000000e0: 9694 c73c 3a27 4b3d 7770 723e 6dda db3d
000000f0: 2950 cdbc c374 3f3e 927d 553e 0ee5 7a3d
00000100: 3aee 593e 4a2d 91bd 99b0 b8bd 6302 303d
00000110: acd5 493e 558c 55be 0cc8 ec3b 6c0a b1bd
00000120: 3477 9ebd 181c dfbd d7f0 1e3e ce9f 423e
00000130: a1fb 9cbd 726a c5bb a609 703e 458f 0e3e
00000140: 3d41 97bc cdf7 a1bd 2f70 313d 2391 05be
00000150: f34f 64bd 86ed ce3d 780a 7bbe 1348 113e
00000160: 7835 333e f0e7 9fbd 4099 3ebe f8f0 febd
00000170: 5554 953d c496 01be d682 12bd 3db8 483d
00000180: 741c 6cbe 74ba 40bd 42e3 b8bc b00e 6dbe
00000190: 985a 66bd 18a4 ce3d 639f 6abe 8524 c0bd
000001a0: b7cf 13be b89f 9ebc 2c9c 763e 02fa a03c
000001b0: 56e6 c6bd df0f 87bd b4e7 5fbe 0ba7 33be
000001c0: 9343 fdbd 81a9 6e3e e921 343c 5457 b93c
000001d0: 40ac 8e3c 3abf 753e 515a 10be a794 6d3e
000001e0: 3655 86be 507e a0bd 1517 b73c 80fc a23d
000001f0: 7912 8bbd 8b94 263d 2a51 67bd b8fa 4ebc
00000200: d10b a73b 8dfd 073b 62e5 7abd be4d b0bd
00000210: f47d ddbd 8546 07be 7400 2b3e c476 16be
00000220: 31a7 3dbd bb33 f03d 5522 2dbd 295b 0e3e
00000230: a6b9 353d 1b69 61bd fbba 843d b6ef 0bbd
00000240: 496e 9d3d e44e fa3d 0802 02be 0b5d a83c
00000250: 2f49 0abe ec61 fa3c 3c01 20bc c8b7 083d
00000260: 1b57 a63d 2b06 14be 4cc6 813d b41f 463e
00000270: aa0e a9bc 97f8 43be 46ca c5bd d4dc 59bd
00000280: 4fb7 02bd 5866 95bd 6350 163e 977f 033c
00000290: 6963 b8bd 7ade d93d 2bde 91bd 9016 94bd
000002a0: 6ac7 023e cc22 3f3d dc39 013e 9589 bd3c
000002b0: 5424 26be 2792 a13d 26d1 7a3d 10a7 28bb
000002c0: b37c ee3d 488a 06be e2a3 b53d a94b d83d
000002d0: eb87 fbbc fd54 efbd 315e 933d dc2e 8b3c
000002e0: a9da 193e d811 a83c 918b 473e 24ae 983d
000002f0: cad2 a93d 20ab f8bd 4daa f13d e79b ddbd
00000300: de46 173e 2db5 f33d 89d3 933d 4b52 0fbe
00000310: 962c d2bd 73b2 35be ad18 363e dfc3 7abe
00000320: ff22 053b 53c1 c7bd 5cd9 0b3e 7256 7cbd
00000330: 7a9e e1bd 81f3 9e3c e4a2 6a3d 04c9 253e
00000340: c9ff bcbc 82de 65be 2ba5 043e e824 053e
00000350: ee92 0b3d 2e0f 003e 9ecc a0bd 5469 273d
00000360: 077d 853d b595 a0bd 416f bd3c 9e49 55bc
00000370: 1716 113d 25c9 bdbd 6496 c6bd 7161 033e
00000380: 903d 36bc 5d7f e9bd af72 813d 80cb 9dbb
00000390: 970e 3e3d 9af6 dcbc e00d fb3d 6cfd 13be
000003a0: 2a71 11be 0e0e 4bbe 29a9 563e 351b 12bd
000003b0: 0c66 50be d210 a2ba 3704 52bd 2f9a 6cbb
000003c0: 246a 41be be10 073e 2156 5dbd 2077 01b6
000003d0: 5a16 80bd 6fdf 3ebd adb4 f5bd 3f95 3c3e
000003e0: 0c11 2abe c063 f9bd cb41 623a 7a1d 73bc
000003f0: a01a 273e 304c e8bd 4c06 4b3e f70d 3f3d

sequential_1/dense_4/BiasAdd/ReadVariableOp:0 f4 [64]
-0.03446615 -0.027528655 -0.042879373 0.17058384 -0.01421692 0.21676783 -0.011546202 0.11528665
0.080696136 -0.04350782 -0.019113496 -0.047197565 0.30749774 -0.053919706 -0.033054154 -0.044450797
-0.04838017 0.17504509 -0.040093772 -0.025706168 -0.0347364 -0.07289246 0.14849867 -0.04722326
-0.022567205 -0.036585785 -0.050310425 -0.09883772 -0.0422022 0.15978093 -0.036640633 0.3175988
0.37944067 0.29663265 -0.01891363 0.24323927 -0.024688192 -0.05306237 0.17557253 -0.048747353
0.23111084 0.26853445 -0.03798305 -0.030141529 0.09137438 -0.03006188 0.34530947 0.22561304
-0.06814933 -0.04468003 0.26137045 -0.04718219 -0.05175836 -0.0228706 -0.05127056 -0.039147343
0.13476864 -0.03576131 -0.029328711 0.1856506 -0.042610504 -0.03224003 -0.0259595 -0.026375692
00000000: 612c 0dbd c683 e1bc 48a2 2fbd 88ad 2e3e
00000010: 16ee 68bc 63f8 5d3e 482c 3dbc 681b ec3d
00000020: 0444 a53d 4235 32bd e893 9cbc 3c52 41bd
00000030: 5870 9d3e e9da 5cbd cb63 07bd 0a12 36bd
00000040: 492a 46bd 053f 333e 5e39 24bd be95 d2bc
00000050: c147 0ebd a448 95bd 0910 183e 2d6d 41bd
00000060: dcde b8bc fada 15bd 4e12 4ebd 6e6b cabd
00000070: 37dc 2cbd 9d9d 233e 7d14 16bd 4f9c a23e
00000080: 0c46 c23e 3ce0 973e c2f0 9abc b713 793e
00000090: e43e cabc ed57 59bd 49c9 333e 4eab 47bd
000000a0: 52a8 6c3e 597d 893e 1d94 1bbd 5eeb f6bc
000000b0: 7e22 bb3d 5544 f6bc 67cc b03e 1b07 673e
000000c0: e091 8bbd 6802 37bd 59d2 853e 1d42 41bd
000000d0: 9300 54bd 205b bbbc 1401 52bd f758 20bd
000000e0: ca00 0a3e 747a 12bd c442 f0bc 311b 3e3e
000000f0: 5a88 2ebd 1f0e 04bd 04a9 d4bc d611 d8bc

sequential_1/dense_3/MatMul/ReadVariableOp:0 f4 [48, 128]
0.060129385 0.10683967 -0.1200512 0.19537905 0.10366139 0.046506196 0.122031055 0.17989832
-0.15403871 0.21865268 -0.023614846 -0.044286165 0.01857366 -0.051841665 -0.025937025 -0.018952552
-0.22626735 0.23051597 0.15813015 0.10554051 -0.039222002 0.063127995 0.22485535 -0.008370864
-0.08171388 -0.04860562 -0.014009317 0.20943803 0.18739213 0.00094905216 -0.21752751 0.31115872
-0.1426029 0.122150585 -0.14161523 -0.056043245 -0.090718366 -0.0610184 0.16677335 0.2158256
-0.25596222 0.11314056 0.26272193 0.03457758 -0.1374345 0.21791534 0.0665445 0.050538182
-0.10091424 -0.14012331 0.16803567 0.0662915 0.11510007 -0.09256282 0.13176471 0.23141119
0.13236596 0.25789234 -0.06125967 0.22464252 -0.09865826 0.025247794 0.016990252 -0.029808963
-0.028559286 -0.038767412 -0.21168563 -0.031636566 -0.031740908 0.12010394 -0.08068601 0.19911084
-0.093594074 0.24523208 0.08552129 0.142106 0.20028639 -0.013054106 -0.20596017 -0.07746915
0.23763604 -0.043629598 -0.065376304 0.031215698 -0.05698121 0.220404 0.117249645 0.0031627987
-0.05567994 0.04722953 0.08806822 -0.08428945 0.18065092 -0.1488155 0.2659284 -0.01421332
-0.048011396 0.0071285185 -0.011261363 0.065203846 -0.03846128 0.1573168 0.11894317 -0.0011606755
-0.21747512 -0.0060464437 -0.054926876 -0.0077071628 0.108472064 -0.012394749 0.19777772 -0.10483756
0.24237496 0.19727322 -0.0111307185 -0.013477061 0.15971394 -0.06011894 0.097842835 0.094177864
-0.011390541 0.18758991 -0.14786616 0.18952292 -0.13001937 0.16687803 0.041484963 0.025356442
0.13198155 0.13047518 -0.03891692 -0.15040517 -0.03617858 -0.17188428 -0.036603827 0.10705116
-0.03729722 0.016327556 -0.14668089 -0.15427354 -0.15311158 0.15051225 -0.031138448 -0.06390343
0.16640925 0.12293044 -0.14544947 0.02163306 0.15312414 0.09645425 -0.09512133 -0.025043894
-0.121882215 -0.14467528 -0.14518696 -0.13019249 -0.113951005 0.059909333 0.009546482 0.1003944
0.01800665 0.18468904 0.20331907 -0.10200124 0.021346737 -0.083374694 -0.024875432 0.13278982
-0.13161261 0.14017916 0.09464379 0.02715042 0.04605674 -0.09299436 -0.011153214 0.007822798
0.09161489 0.15138811 0.09791377 0.08417615 0.04153311 -0.07587686 -0.065719865 -0.196898
-0.14599338 -0.064821675 0.1200117 0.07286741 -0.15017179 0.15642014 -0.020000486 0.06489362
0.07079533 0.09690533 0.039322462 0.024795972 -0.113722146 -0.111470565 0.10629568 0.015262829
0.031623695 -0.02397426 -0.08436016 0.015504282 -0.044085212 0.00010283332 0.12109368 -0.069981225
-0.02409485 0.16876675 -0.05618888 0.15857443 0.17351672 -0.040969383 -0.10863759 0.11392247
-0.12247154 -0.02334225 0.0007323459 -0.103521675 -0.0053079464 0.09167892 0.08928787 -0.13270628
0.04770201 -0.12730962 -0.15858962 0.09139077 0.16623093 -0.17091449 -0.033141956 0.17113744
-0.0047292104 -0.09571582 -0.067821555 0.037037857 0.11100149 0.17027251 0.121210836 -0.13446213
0.10344258 0.14901528 -0.13231085 -0.17222415 -0.046474006 0.008231255 -0.12331657 -0.041318465
-0.02228619 0.06446214 0.20264748 0.10161925 0.18428984 -0.03600176 0.016523607 0.041960694
00000000: 3b4a 763d c2ce da3d 67dd f5bd 7211 483e
00000010: 6c4c d43d 487d 3e3d 6beb f93d 4437 383e
00000020: 53bc 1dbe 7de6 5f3e ec73 c1bc 6965 35bd
00000030: ca27 983c ed57 54bd e279 d4bc 6242 9bbc
00000040: a1b2 67be 610c 6c3e dfec 213e 9f25 d83d
00000050: 40a7 20bd 4049 813d 7b40 663e f325 09bc
00000060: 9b59 a7bd b016 47bd 5687 65bc ec76 563e
00000070: b9e3 3f3e d0c9 783a 88bf 5ebe 3250 9f3e
00000080: 7f06 12be 162a fa3d 9503 11be 9a8d 65bd
00000090: 8dca b9bd 6eee 79bd a2c6 2a3e 6301 5d3e
000000a0: 7b0d 83be 3db6 e73d 7d83 863e 38a1 0d3d
000000b0: a1bb 0cbe 3325 5f3e 7c48 883d 2001 4f3d
000000c0: 20ac cebd 7c7c 0fbe 8b11 2c3e d7c3 873d
000000d0: 96b9 eb3d 9391 bdbd 54ed 063e 0ef7 6c3e
000000e0: f18a 073e 770a 843e 6beb 7abd b008 663e
000000f0: 580d cabd 76d4 ce3c 242f 8b3c ed31 f4bc
00000100: 2af5 e9bc 94ca 1ebd 1ec4 58be 5895 01bd
00000110: c102 02bd 0ef9 f53d b53e a5bd b6e3 4b3e
00000120: 40ae bfbd 1e1e 7b3e c925 af3d 3c84 113e
00000130: e017 4d3e e4e0 55bc 39e7 52be 25a8 9ebd
00000140: dd56 733e f3b4 32bd 03e4 85bd 10b8 ff3c
00000150: 2165 69bd 96b1 613e 9520 f03d f546 4f3b
00000160: a610 64bd c073 413d 1c5d b43d f29f acbd
00000170: 8efc 383e 1763 18be c427 883e fcde 68bc
00000180: 99a7 44bd 5996 e93b 9481 38bc 9889 853d
00000190: 9389 1dbd a817 213e 7a98 f33d cf21 98ba
000001a0: ccb1 5ebe 3f21 c6bb 01fb 60bd 5e8c fcbb
000001b0: 9a26 de3d 5813 4bbc 3e86 4a3e 13b5 d6bd
000001c0: 2431 783e fe01 4a3e 9e5d 36bc e4ce 5cbc
000001d0: 0d8c 233e 473f 76bd d361 c83d 53e0 c03d
000001e0: 649f 3abc 9217 403e 3a6a 17be 4c12 423e
000001f0: cc23 05be 13e2 2a3e 23ec 293d 50b8 cf3c
00000200: 2c26 073e 499b 053e 5967 1fbd d003 1abe
00000210: fe2f 14bd 6f02 30be e5ed 15bd a33d db3d
00000220: f8c4 18bd 5ec1 853c 8433 16be e2f9 1dbe
00000230: 48c9 1cbe e21f 1a3e 0f16 ffbc cddf 82bd
00000240: 3067 2a3e f4c2 fb3d b5f0 14be d137 b13c
00000250: 93cc 1c3e ce89 c53d f9ce c2bd da28 cdbc
00000260: 629d f9bd c225 14be e4ab 14be 2e51 05be
00000270: 255f e9bd 7d63 753d d968 1c3c 949b cd3d
00000280: af82 933c 201f 3d3e e032 503e 07e6 d0bd
00000290: 5adf ae3c 5ac0 aabd 90c7 cbbc 0efa 073e
000002a0: 75c5 06be 208b 0f3e 9ad4 c13d 8f6a de3c
000002b0: fea5 3c3d d473 bebd f8bb 36bc 312b 003c
000002c0: 96a0 bb3d 7c05 1b3e 0487 c83d 8c64 ac3d
000002d0: 9f1e 2a3d 5465 9bbd 2398 86bd a19f 49be
000002e0: 4a7f 15be 3ac1 84bd b2c8 f53d 823b 953d
000002f0: a2c6 19be 9a2c 203e 0fd8 a3bc f2e6 843d
00000300: 24fd 903d 4d76 c63d 9710 213d ec20 cb3c
00000310: 28e7 e8bd ae4a e4bd 8db1 d93d f210 7a3c
00000320: d987 013d ab65 c4bc 05c5 acbd ac05 7e3c
00000330: b292 34bd 38a8 d738 f7ff f73d 5152 8fbd
00000340: 9062 c5bc 31d1 2c3e 5026 66bd 5661 223e
00000350: 5eae 313e 83cf 27bd 637d debd 2f50 e93d
00000360: 5cd2 fabd 3f38 bfbc e7fa 3f3a 2c03 d4bd
00000370: 48ee adbb 28c2 bb3d 8fdc b63d 28e4 07be
00000380: 2f63 433d 745d 02be 5165 22be 162b bb3d
00000390: 7138 2a3e 3504 2fbe dcbf 07bd a73e 2f3e
000003a0: 7ef7 9abb a806 c4bd 07e6 8abd 02b5 173d
000003b0: c054 e33d eb5b 2e3e 633d f83d 71b0 09be
000003c0: b4d9 d33d 7697 183e 7f7c 07be 875b 30be
000003d0: 875b 3ebd 63dc 063c 668d fcbd 8d3d 29bd
000003e0: 8791 b6bc ba04 843d d282 4f3e c11d d03d
000003f0: 7ab6 3c3e 9576 13bd 845c 873c fade 2b3d

sequential_1/dense_3/BiasAdd/ReadVariableOp:0 f4 [128]
-0.011979308 -0.04088036 -0.06208965 -0.030368976 0.010270666 -0.0032276048 -0.022177616 -0.0028171611
-0.08426722 0.007880662 0.04909755 -0.012437564 -0.021125041 0.013786307 -0.05463484 -0.04737682
0.08776417 -0.0032442214 -0.0043359655 -0.0056947116 -0.0029961965 -0.037717633 -0.0015425301 -0.0024545118
-0.048993982 -0.022310881 0.105762266 -0.004970898 -0.018645268 -0.002639632 0.027700074 -0.006686242
-0.09999373 0.002230836 -0.029841669 -0.042988103 -0.015536238 -0.04618081 -0.03329657 0.00855092
0.049015917 -0.014156595 -0.04153863 0.016521242 0.07655064 -0.007729724 -0.013021541 -0.030315802
-0.071713775 0.030700468 -0.028928177 0.00028149819 0.009188137 0.11097709 0.003143606 0.001514719
-0.029198306 0.018586716 -0.08099276 -0.018971913 -0.02095723 -0.019882275 -0.0313687 -0.039185338
-0.028092654 -0.010274944 -0.07105873 0.07495159 0.005761861 -0.044676133 0.013372894 -0.015326398
-0.03148173 -0.0075991917 -0.031655498 0.0070410897 -0.04080344 -0.059271634 0.06328759 -0.030393662
-0.04335599 -0.014840562 -0.03160832 -0.029946059 0.0009539363 -0.047430724 0.0126893 -0.028053029
-0.0383813 0.002054941 -0.0035124419 -0.026249157 -0.040607974 -0.05903786 -0.033509705 -0.093328275
-0.011409846 -0.028139282 -0.008311697 -0.053758428 0.021192962 0.0031358665 -0.017093034 -0.038834102
0.08005699 0.0037869846 -0.030695107 -0.031751614 -0.055484325 -0.036982205 0.0028737027 -0.038553666
-0.008898825 0.007942234 0.04898331 0.013211226 0.051789135 -0.040819354 0.08417901 -0.026619615
-0.01740239 0.0020236853 0.11809195 0.00094167615 0.04255609 0.031565864 0.033896297 -0.014175362
00000000: dc44 44bc 2a72 27bd b851 7ebd 5cc8 f8bc
00000010: 4c46 283c 3986 53bb d5ad b5bc 1fa0 38bb
00000020: 4b94 acbd e41d 013c 831a 493d edc6 4bbc
00000030: 6c0e adbc f6df 613c c8c8 5fbd 320e 42bd
00000040: b3bd b33d 019d 54bb b714 8ebb b49a babb
00000050: d65b 44bb ce7d 1abd b92e caba e0db 20bb
00000060: eaad 48bd 4fc5 b6bc e399 d83d eae2 a2bb
00000070: f6bd 98bc adfd 2cbb 44eb e23c 4318 dbbb
00000080: 83c9 ccbd 3833 123b 8476 f4bc 4b14 30bd
00000090: b58b 7ebc 1728 3dbd fc61 08bd 2819 0c3c
000000a0: eac4 483d 10f1 67bc 6924 2abd 8e57 873c
000000b0: 95c6 9c3d a049 fdbb 4d58 55bc d858 f8bc
000000c0: acde 92bd 8c7f fb3c c9fa ecbc 0c96 9339
000000d0: d789 163c f547 e33d f504 4e3b 8989 c63a
000000e0: 4931 efbc 2b43 983c 88df a5bd fc6a 9bbc
000000f0: 7fae abbc 27e0 a2bc 777c 00bd ce80 20bd
00000100: 9122 e6bc 3d58 28bc 3d87 91bd 3880 993d
00000110: fecd bc3b 52fe 36bd fc19 5b3c 931b 7bbc
00000120: fdf2 00bd a402 f9bb 32a9 01bd f1b8 e63b
00000130: 8221 27bd d0c6 72bd ed9c 813d 21fc f8bc
00000140: 0d96 31bd d425 73bc ba77 01bd 7051 f5bc
00000150: 9511 7a3a b846 42bd c8e6 4f3c 77cf e5bc
00000160: b635 1dbd 30ac 063b ff30 66bb 7908 d7bc
00000170: 8c54 26bd afd1 71bd 7941 09bd e522 bfbd
00000180: 5df0 3abc 5a84 e6bc c92d 08bc cc31 5cbd
00000190: dd9c ad3c 1c83 4d3b b106 8cbc 8210 1fbd
000001a0: ebf4 a33d 0f2f 783b 4e74 fbbc fb0d 02bd
000001b0: 8843 63bd a77a 17bd bb54 3c3b 73ea 1dbd
000001c0: 61cc 11bc 2520 023c b9a2 483d e673 583c
000001d0: d820 543d 3232 27bd 0b66 ac3d 6111 dabc
000001e0: 758f 8ebc ce9f 043b 31da f13d d1da 763a
000001f0: 4b4f 2e3d 354b 013d d8d6 0a3d c73f 68bc

sequential_1/conv2d_5/Conv2D/ReadVariableOp:0 f4 [48, 48, 5, 5]
0.06848221 0.10993462 0.19930398 0.22311144 0.07499851 0.035232447 0.086511485 0.11592653
0.2040594 0.06849168 -0.039052013 0.010670975 0.08355185 0.07578952 0.088964775 -0.05370219
0.023353446 0.0032296674 -0.051834237 -0.042088144 -0.12338932 -0.020456634 -0.070533656 0.027868528
-0.02297009 -0.059753057 0.030123048 -0.04941474 -0.055003796 -0.04278689 -0.063209176 0.013052927
0.12264249 0.09772248 -0.003969247 0.012208647 0.07732312 0.052329637 0.10727684 0.002391817
0.14364189 0.08543786 0.12191021 0.10561146 0.09527667 0.13458075 0.094414845 0.003996867
0.13205343 0.04206571 0.16814968 0.099814065 0.08203862 0.05943952 0.07186549 0.05036105
0.033303212 0.036248293 -0.013932724 0.06403261 0.03527736 -0.05040095 -0.09530274 -0.021780366
0.0148439985 -0.043969806 -0.009329298 -0.08200852 -0.084421344 -0.053126365 0.0272135 0.030964449
-0.045454275 -0.08227801 -0.028370341 0.04536809 0.09857934 0.0840601 0.04011466 0.0446084
-0.002417577 0.02152788 0.10935239 -0.0008522843 -0.04674048 0.016894085 0.048977736 0.014413953
0.08838196 0.08585703 0.007795652 0.042748276 0.02602214 0.10339457 0.06829942 -0.046159755
0.09564093 0.01939953 0.032508716 0.057876874 0.055002525 0.02981482 0.073878236 0.046762727
-0.000681996 -0.04294557 -0.044116296 -0.00046310964 -0.020609548 0.015689787 0.058665838 0.016337227
0.030956984 -0.009747998 0.04868533 0.0053875204 -0.016524117 0.06741902 -0.025438467 -0.0034387743
0.009329759 0.030605858 0.017859396 -0.035726245 -0.03377607 -0.048330914 -0.060274675 -0.00030745717
0.021321623 0.0053949417 0.011730547 -0.04758357 -0.035600293 -0.0135343345 0.033803064 -0.0406231
-0.01166098 -0.0028494839 -0.022960017 -0.041749034 0.0070889234 -0.054598015 0.023873849 -0.030980557
-0.052745473 -0.015474272 0.0022592873 -0.0458144 -0.040190652 -0.036573857 -0.00445688 -0.0054748096
0.0053076716 -0.015974823 -0.053574953 -0.03355274 -0.041890208 -0.05229508 -0.027257198 -0.04259971
0.02439967 0.046046276 0.014485621 0.039004985 0.030440137 -0.01884394 -0.0075941468 -0.000329024
0.035589878 -0.04855674 0.034973025 0.04114727 0.03906382 0.013101466 -0.047641903 -0.047231678
-0.016859317 -0.0816306 -0.017545592 -0.0315429 -0.052950557 0.03051964 -0.014593551 -0.04650598
0.0037355432 0.05360232 -0.016091133 0.035997048 0.05376752 0.02318383 -0.009935903 -0.02485587
0.011569865 0.014730393 0.006794626 -0.026459305 -0.026221387 -0.017358985 0.010870193 -0.060898785
0.004817776 0.038825624 -0.019656576 0.04241255 0.029671364 -0.03330441 -0.032277115 0.037123285
-0.034338146 0.043338954 -0.052224334 0.028829517 0.025863873 0.02435951 -0.005505503 -0.039650884
0.043394763 0.014936495 -0.01568177 0.025949253 -0.01974917 -0.010042825 0.016435277 -0.010431693
-0.020062264 0.085723974 0.0998963 0.08670248 0.0211351 -0.035533093 0.10722475 0.08915522
0.16224946 0.020742781 -0.05638653 0.014911118 0.036678366 0.1343206 0.06859109 0.04444555
0.111550786 0.01834224 0.030066408 -0.02583126 -0.08013342 -0.013036046 0.04731437 0.054875143
0.037033137 -0.014713931 0.081474096 0.06692285 0.049088802 -0.03290924 0.061548345 0.083453335
00000000: 6740 8c3d 6725 e13d 5816 4c3e 5377 643e
00000010: d298 993d e64f 103d ef2c b13d e36a ed3d
00000020: f3f4 503e 5e45 8c3d 01f5 1fbd 50d5 2e3c
00000030: 3b1d ab3d 8937 9b3d 2a33 b63d d4f6 5bbd
00000040: ba4f bf3c d4a8 533b 2350 54bd 9e64 2cbd
00000050: 8ab3 fcbd ac94 a7bc f373 90bd 8a4c e43c
00000060: c52b bcbc 9fbf 74bd 9cc4 f63c 1c67 4abd
00000070: a94b 61bd 4e41 2fbd d073 81bd f2db 553c
00000080: fc2b fb3d b922 c83d 7510 82bb c706 483c
00000090: 955b 9e3d 9a57 563d f6b3 db3d 08c0 1c3b
000000a0: dc16 133e 0bfa ae3d 0fac f93d d24a d83d
000000b0: 6a20 c33d 89cf 093e 925c c13d 27f8 823b
000000c0: 0439 073e 184d 2c3d 6e2f 2c3e 516b cc3d
000000d0: dd03 a83d db76 733d 372e 933d 6347 4e3d
000000e0: f368 083d 1779 143d 1446 64bc 8723 833d
000000f0: fe7e 103d 3a71 4ebd 152e c3bd bd6c b2bc
00000100: 3e34 733c af19 34bd e9d9 18bc 15f4 a7bd
00000110: 19e5 acbd 089b 59bd d9ee de3c 28a9 fd3c
00000120: 432e 3abd 6081 a8bd eb68 e8bc e4d3 393d
00000130: f7e3 c93d b427 ac3d 454f 243d 4cb7 363d
00000140: 3670 1ebb 3d5b b03c 25f4 df3d d56b 5fba
00000150: f272 3fbd 7765 8a3c e19c 483d 8028 6c3c
00000160: 9a01 b53d cfd5 af3d ab72 ff3b d118 2f3d
00000170: 622c d53c 88c0 d33d 91e0 8b3d 0312 3dbd
00000180: 64df c33d c3eb 9e3c dc27 053d 4d10 6d3d
00000190: 544a 613d 363e f43c 794d 973d 468a 3f3d
000001a0: fac7 32ba b2e7 2fbd 4ab3 34bd 86cd f2b9
000001b0: 5bd5 a8bc de87 803c 974b 703d a6d5 853c
000001c0: 8099 fd3c 11b6 1fbc 456a 473d cc89 b03b
000001d0: 965d 87bc fc12 8a3d 5564 d0bc 0f5d 61bb
000001e0: d8db 183c 23b9 fa3c de4d 923c af55 12bd
000001f0: c758 0abd a3f6 45bd 94e2 76bd 3432 a1b9
00000200: afaa ae3c 0dc8 b03b 7b31 403c fde6 42bd
00000210: 9dd1 11bd 1dbf 5dbc 1575 0a3d 6864 26bd
00000220: b20d 3fbc 68be 3abb a516 bcbc 0901 2bbd
00000230: 334a e83b 2ba2 5fbd 1793 c33c f0ca fdbc
00000240: a30b 58bd cd87 7dbc 8d10 143b e1a7 3bbd
00000250: f49e 24bd 78ce 15bd 050b 92bb 0866 b3bb
00000260: faeb ad3b a2dd 82bc 6971 5bbd 996e 09bd
00000270: 1195 2bbd 5e33 56bd 7d4a dfbc 097d 2ebd
00000280: d1e1 c73c 059b 3c3d 1955 6d3c b1c3 1f3d
00000290: 985d f93c 9b5e 9abc 52d8 f8bb db80 acb9
000002a0: b1c6 113d 6fe3 46bd e03f 0f3d 0a8a 283d
000002b0: 6201 203d 88a7 563c 2824 43bd 0176 41bd
000002c0: 8d1c 8abc f22d a7bd c6bb 8fbc 2133 01bd
000002d0: afe2 58bd 5304 fa3c ca19 6fbc 0e7d 3ebd
000002e0: 04d0 743b 1b8e 5b3d 8dd1 83bc a471 133d
000002f0: 553b 5c3d 04ec bd3c 33ca 22bc 8a9e cbbc
00000300: 888f 3d3c bf57 713c 74a5 de3b 2fc1 d8bc
00000310: 3cce d6bc 6e34 8ebc e518 323c 0171 79bd
00000320: 6fde 9d3b 9e07 1f3d d406 a1bc c8b8 2d3d
00000330: 5c11 f33c 346a 08bd 0235 04bd 960e 183d
00000340: 28a6 0cbd 3084 313d 2fe9 55bd e12b ec3c
00000350: 79e0 d33c 988d c73c 8267 b4bb f768 22bd
00000360: b5be 313d 33b8 743c 0e77 80bc 8793 d43c
00000370: 03c9 a1bc a98a 24bc 46a3 863c b1e9 2abc
00000380: 9e59 a4bc 0d90 af3d 6e96 cc3d 1291 b13d
00000390: 8423 ad3c 268b 11bd a698 db3d 0397 b63d
000003a0: b924 263e c4ec a93c 90f5 66bd c34d 743c
000003b0: 0e3c 163d 578b 093e 7c79 8c3d 890c 363d
000003c0: bd74 e43d 7742 963c d44d f63c 149c d3bc
000003d0: fe1c a4bd 2495 55bc b6cc 413d c2c4 603d
000003e0: 0fb0 173d b312 71bc e4db a63d d90e 893d
000003f0: 5711 493d d7cb 06bd 1e1a 7c3d 95e9 aa3d

sequential_1/conv2d_5/BiasAdd/ReadVariableOp:0 f4 [48]
0.076663464 -0.024141964 0.07351044 -0.047896698 -0.061379112 -0.0030337817 -0.07776784 -0.0445697
0.056912027 0.059162725 -0.01865926 0.041653942 -0.062114254 0.050406463 -0.024427408 -0.0190404
-0.025107397 -0.03265843 -0.052574333 -0.051037528 0.052168857 0.060349215 0.06745803 -0.04496291
-0.005460865 -0.028426964 0.0428704 -0.040514197 -0.043265633 0.0014582031 0.051986717 -0.05194381
-0.038880546 -0.04060311 0.072911404 0.028754327 -0.08683814 0.06932637 -0.06464411 0.12762263
-0.10472408 -0.0030276377 -0.0558699 0.051312115 0.04033515 0.05285744 0.05496644 0.05552645
00000000: bc01 9d3d 5ec5 c5bc a48c 963d 542f 44bd
00000010: aa68 7bbd 69d2 46bb bf44 9fbd b88e 36bd
00000020: 961c 693d 9d54 723d 4edb 98bc 539d 2a3d
00000030: 846b 7ebd 0277 4e3d fd1b c8bc 9dfa 9bbc
00000040: 07ae cdbc d9c4 05bd 2f58 57bd ba0c 51bd
00000050: 03af 553d bd30 773d 7027 8a3d 072b 38bd
00000060: 0ef1 b2bb aadf e8bc df98 2f3d 37f2 25bd
00000070: 4e37 31bd 2d21 bf3a 06f0 543d 08c3 54bd
00000080: 3541 1fbd 724f 26bd 9352 953d 328e eb3c
00000090: 32d8 b1bd fcfa 8d3d 2264 84bd 82af 023e
000000a0: 9479 d6bd 556b 46bb d6d7 64bd a72c 523d
000000b0: 7836 253d 0b81 583d 7d24 613d b46f 633d

sequential_1/conv2d_4/Conv2D/ReadVariableOp:0 f4 [48, 32, 5, 5]
0.037405226 0.047465578 0.04659041 0.026902152 -0.022580288 0.065138385 0.0052316566 -0.04374512
0.017625235 -0.085866675 0.020318445 -0.010666513 0.0035953803 -0.028124383 -0.08720043 0.07583035
0.023715228 0.048775375 -0.035468157 -0.00034671585 0.11053191 0.022536473 -0.0028280166 -0.047564287
0.059542064 -0.06650467 -0.07081385 0.073147476 0.046577815 0.072476566 -0.14662549 -0.065534145
-0.053667806 0.032530718 -0.034010395 0.0102461865 0.021974564 -0.052651912 0.009355269 -0.14268433
-0.02220091 0.03895364 0.08572568 0.022066057 -0.013066719 0.080681406 0.12645034 0.19215052
0.09660449 0.10794103 0.018532477 -0.04330187 -0.0879441 -0.026514465 -0.050508928 0.13842925
0.021315737 0.024660839 0.017004099 -0.01670336 0.09806554 0.05480132 0.01188652 0.040901516
0.06506329 0.00979505 0.069892004 0.04256628 0.025223479 0.079948634 -0.10749109 -0.10087488
-0.033510476 0.024787212 -0.04548278 0.053132173 0.08339543 0.050251473 0.008969274 0.039123632
0.007798091 0.01800034 0.0052776486 -0.046449196 0.052025676 -0.025544591 -0.042751435 -0.086556844
-0.020692987 0.0104784975 -0.048435304 -0.005446323 -0.07287101 -0.07276309 -0.03270847 -0.012869279
-0.012357962 -0.03266694 -0.021787092 -0.01764746 -0.07084608 -0.06352745 -0.065772705 -0.0010003818
-0.014641359 -0.11610162 -0.075718984 -0.058638353 -0.09111928 -0.012652933 -0.020323765 -0.08049869
-0.06297547 0.0024455683 -0.015688036 -0.016379366 -0.036819972 -0.08637584 -0.053543527 0.031135403
-0.06124479 -0.10512571 -0.011484972 0.035043105 0.07742226 -0.013477881 -0.09007151 -0.027674057
-0.07458215 0.023836475 0.13085042 0.0999246 0.18525252 0.091349036 0.041459918 0.15485822
0.17948258 0.1694946 0.17019583 0.06548091 0.09615884 0.100749314 0.2127122 0.18641949
0.19167441 0.058315925 0.009148272 0.05943869 0.023986103 0.02056011 0.02277438 0.09142096
0.08111812 0.0071676727 0.003237797 0.050570145 0.051326424 0.008031992 -0.02742746 0.028883694
0.072298706 0.05813882 0.07289558 0.010248061 -0.015496099 0.019655215 0.10856031 0.051466167
0.055583134 0.0440773 -0.000815833 0.054880958 0.11669878 -0.0007526042 0.015421759 0.044555977
-0.022791067 -0.033410408 -0.017067626 -0.116072446 0.019107662 0.022011884 0.075280264 -0.030391501
0.016365407 0.10659108 0.037581354 -0.008571673 0.03459774 -0.0264765 -0.05634274 -0.034054212
0.06340964 0.029650195 0.051870476 -0.06152754 0.054901052 0.027747752 -0.004559182 -0.00909816
-0.040888563 -0.14792888 -0.10255876 -0.074774146 -0.08241897 0.0064829676 0.042765487 0.08308794
0.009688288 0.010694498 -0.012119344 0.07632896 0.117854305 0.04346702 -0.00049983896 0.048798356
0.023786694 0.15581354 0.06824682 0.031387072 -0.021537231 0.038167406 -0.05492771 -0.010368536
-0.07074976 0.008131334 -0.013114374 -0.043580003 0.009932113 -0.0147252325 0.05278144 0.10157288
-0.009889676 0.021460552 -0.009203916 -0.004888955 0.03448055 -0.056951985 0.02127546 0.018700639
0.11555634 0.019283703 -0.053049546 0.025163183 0.052988023 0.01628632 -0.043510675 0.01409648
-0.049839277 -0.04186398 -0.12946057 -0.14276388 -0.105225146 -0.10691364 0.032976158 -0.115897715
00000000: 3936 193d 446b 423d 96d5 3e3d e761 dc3c
00000010: 4cfa b8bc 4667 853d 516e ab3b 152e 33bd
00000020: cc62 903c deda afbd de72 a63c 99c2 2ebc
00000030: 79a0 6b3b 1b65 e6bc 2496 b2bd f14c 9b3d
00000040: 7046 c23c b0c8 473d 0f47 11bd 6ac7 b5b9
00000050: 8e5e e23d 699e b83c 3f56 39bb c5d2 42bd
00000060: 61e2 733d 9a33 88bd da06 91bd 58ce 953d
00000070: 61c8 3e3d 986e 943d fe24 16be c436 86bd
00000080: c6d2 5bbd ee3e 053d 7c4e 0bbd 9fdf 273c
00000090: 0004 b43c 88a9 57bd d846 193c d71b 12be
000000a0: afde b5bc da8d 1f3d f290 af3d e0c3 b43c
000000b0: cb15 56bc 4b3c a53d 337c 013e 1bc3 443e
000000c0: 93d8 c53d 3010 dd3d 6cd1 973c 4d5d 31bd
000000d0: 091c b4bd dd34 d9bc 73e2 4ebd 66c0 0d3e
000000e0: 579e ae3c 8705 ca3c 2e4c 8b3c 7cd5 88bc
000000f0: 96d6 c83d 5977 603d aebf 423c 5988 273d
00000100: e73f 853d 6b7b 203c 8a23 8f3d fb59 2e3d
00000110: 78a1 ce3c 1cbc a33d 4a24 dcbd 7d97 cebd
00000120: 4842 09bd 8d0e cb3c 274c 3abd 1fa1 593d
00000130: 39cb aa3d 7dd4 4d3d ddf3 123c 1a40 203d
00000140: 2187 ff3b 7375 933c 20f0 ac3b 8341 3ebd
00000150: e018 553d e442 d1bc 211c 2fbd b744 b1bd
00000160: 5784 a9bc 01ae 2b3c 1964 46bd 1277 b2bb
00000170: 653d 95bd d104 95bd 51f9 05bd abd9 52bc
00000180: 0d79 4abc c5cd 05bd d87a b2bc 6891 90bc
00000190: c017 91bd ae1a 82bd d7b3 86bd 3e1f 83ba
000001a0: 50e2 6fbc b0c6 edbd 8e12 9bbd c52e 70bd
000001b0: bf9c babd 3f4e 4fbc 067e a6bc 7fdc a4bd
000001c0: 49f9 80bd d445 203b 3284 80bc 052e 86bc
000001d0: 8ad0 16bd d1e5 b0bd 7550 5bbd ac0f ff3c
000001e0: d1db 7abd 264c d7bd 772b 3cbc 5c89 0f3d
000001f0: 908f 9e3d 55d2 5cbc 6977 b8bd b4b4 e2bc
00000200: 87be 98bd b644 c33c a7fd 053e 45a5 cc3d
00000210: d6b2 3d3e 3415 bb3d e0d1 293d 2793 1e3e
00000220: 48ca 373e fe8f 2d3e d147 2e3e db1a 863d
00000230: edee c43d a855 ce3d 3ad1 593e c0e4 3e3e
00000240: 4c46 443e aedc 6e3d a2e2 153c fc75 733d
00000250: 817e c43c ad6d a83c 5691 ba3c ea3a bb3d
00000260: 4221 a63d ccde ea3b 3831 543b a422 4f3d
00000270: a83b 523d 9e98 033c 8daf e0bc 7f9d ec3c
00000280: 5811 943d f922 6e3d 474a 953d 7ce7 273c
00000290: 5ae3 7dbc f903 a13c de54 de3d 30ce 523d
000002a0: 24ab 633d 668a 343d a0dd 55ba dbca 603d
000002b0: c5ff ee3d 6a4a 45ba 8cab 7c3c 5480 363d
000002c0: 55b4 babc 5ad9 08bd 68d1 8bbc 64b7 edbd
000002d0: ac87 9c3c 4452 b43c 8a2c 9a3d 99f7 f8bc
000002e0: bf10 863c 6d4c da3d e8ee 193d 3470 0cbc
000002f0: 5cb6 0d3d 3fe5 d8bc a5c7 66bd 6e7c 0bbd
00000300: eadc 813d f7e4 f23c 2376 543d 4d04 7cbd
00000310: eddf 603d 414f e33c 3165 95bb 7310 15bc
00000320: c47a 27bd ab7a 17be 540a d2bd 3023 99bd
00000330: 47cb a8bd 136f d43b dd2a 2f3d 032a aa3d
00000340: a0bb 1e3c fa37 2f3c 3790 46bc 5c52 9c3d
00000350: 995d f13d 790a 323d a007 03ba c9e0 473d
00000360: 50dc c23c 968d 1f3e fdc4 8b3d bb8f 003d
00000370: d96e b0bc 6d55 1c3d e1fb 60bd cbe0 29bc
00000380: 40e5 90bd 4939 053c acdd 56bc f280 32bd
00000390: 4dba 223c 1a42 71bc 5a31 583d 7105 d03d
000003a0: 4f08 22bc 0ace af3c 06cc 16bc 8733 a0bb
000003b0: 7a3b 0d3d 7c46 69bd e049 ae3c 1532 993c
000003c0: cda8 ec3d dbf8 9d3c 7b4a 59bd 0523 ce3c
000003d0: f809 593d e36a 853c 4038 32bd ecf4 663c
000003e0: 4524 4cbd 9179 2bbd 5091 04be b230 12be
000003f0: 4880 d7bd 8af5 dabd 0212 073d c85b edbd

sequential_1/conv2d_4/BiasAdd/ReadVariableOp:0 f4 [48]
0.02858447 0.018581677 0.14489911 0.096638866 -0.05298793 -0.01878843 -0.021320911 -0.03274127
-0.022403948 0.01689087 -0.015665969 0.04340818 0.034921154 -0.01771784 -0.021285404 -0.064631425
0.043139044 0.043876827 -0.0562798 0.019225592 0.09085238 -0.018384855 -0.0039725695 -0.022476068
-0.027666507 0.047040984 -0.013365284 0.08333651 -0.024090165 0.013834576 -0.010778727 0.044327956
-0.023175972 -0.027749427 -0.011503993 -0.010347827 0.022401469 -0.01787789 -0.011840289 -0.06489362
0.09344682 -0.047630478 -0.011611748 -0.026339645 0.002773169 -0.009140902 0.008191301 -0.024755836
00000000: fa29 ea3c 9a38 983c 6f60 143e 99ea c53d
00000010: df09 59bd 32ea 99bc 31a9 aebc b61b 06bd
00000020: 7c88 b7bc b95e 8a3c eb55 80bc c7cc 313d
00000030: 7c09 0f3d 0125 91bc ba5e aebc 7b5d 84bd
00000040: 91b2 303d 30b8 333d a685 66bd fd7e 9d3c
00000050: d010 ba3d d69b 96bc 542c 82bb bb1f b8bc
00000060: dfa4 e2bc 0cae 403d 10fa 5abc 55ac aa3d
00000070: bd58 c5bc 6baa 623c 4299 30bc 3b91 353d
00000080: 89db bdbc c452 e3bc 3e7b 3cbc ef89 29bc
00000090: 4983 b73c a774 92bc c6fd 41bc f2e6 84bd
000000a0: 0c61 bf3d 2d18 43bd 333f 3ebc 3dc6 d7bc
000000b0: 0ebe 353b b9c3 15bc ce34 063c c0cc cabc

sequential_1/conv2d_3/Conv2D/ReadVariableOp:0 f4 [32, 3, 5, 5]
-0.105475426 -0.07042155 -0.05623373 -0.13130935 0.06741548 -0.15946922 -0.00694181 -0.0369865
0.004661853 0.032599635 -0.12410123 -0.08528412 -0.05004149 0.0044099255 0.058992352 -0.040511426
-0.06282118 -0.03539325 -0.11864262 -0.04042049 -0.15060303 -0.08168004 -0.13229789 -0.015718978
0.034674924 -0.11405434 -0.025889521 -0.17695785 -0.117603 0.08325053 0.006482815 -0.13126986
-0.041565463 -0.075537264 0.052963603 -0.12050928 -0.002317572 -0.053164925 -0.09699851 0.05136021
-0.06381418 -0.009958866 -0.078237206 0.0072105466 0.099879116 -0.095915325 0.0129073905 -0.11036758
0.012242928 0.058651477 -0.0690414 -0.13206933 -0.13116334 -0.06356995 0.11241168 -0.020213336
0.0015072614 -0.06100972 -0.07002378 0.065793976 -0.08084006 -0.04777734 -0.11847925 -0.10267322
0.10206542 -0.036416844 -0.046301633 -0.063212246 -0.0055340626 0.023331136 -0.014754841 -0.08184038
-0.011674329 -0.01381155 -0.018740725 0.00024412107 -0.15521635 -0.02315775 -0.047580186 -0.07858939
-0.11389642 0.003998001 -0.025657237 -0.13647403 -0.06616202 -0.12651946 -0.040812664 -0.19395106
-0.11997597 -0.020900473 0.056976344 -0.05869794 0.016328812 -0.07593684 -0.082634725 0.12865224
-0.0057117953 -0.016539004 0.13181826 0.14120784 -0.08927364 -0.1079385 -0.040952 -0.009016869
-0.076446466 -0.053425748 0.022847816 -0.0647391 -0.0035642541 -0.06747975 -0.09319352 -0.11068045
-0.12653172 -0.074889064 -0.107213385 0.037946217 -0.03684835 -0.060648162 -0.060667396 -0.012262414
0.17834097 0.12582031 0.05269951 0.06407237 0.12974888 0.022172688 -0.01214152 -0.11424186
-0.124748185 -0.14553477 -0.020686615 -0.10395742 -0.14392737 -0.02041293 -0.002401768 -0.15846373
-0.14824301 -0.15822625 -0.017442297 -0.1488567 0.005873893 -0.01191339 0.0027372497 -0.038686577
0.0413731 0.12328876 0.064303964 0.123807095 0.060559295 -0.008794676 0.033421475 0.09292289
0.028781971 -0.033689 -0.06878888 0.04427731 -0.022802064 -0.04902406 -0.049035978 -0.09983378
0.048760474 -0.020613968 0.037753187 -0.017329011 -0.017436923 -0.10079837 -0.021625763 -0.12213784
-0.076434374 -0.063966796 -0.029687913 -0.092984065 0.033611692 -0.09621388 0.015978033 0.060029205
0.081516035 0.06835646 -0.080928594 -0.013029987 0.12502873 0.12952274 -0.06441016 -0.046901733
-0.03090872 0.13677467 0.009113035 -0.0866709 -0.036593314 -0.015294139 0.04127508 -0.049848564
0.03455913 -0.0022007728 0.03121644 -0.08524373 0.019255402 -0.079016 -0.0710199 -0.03409103
-0.039813273 -0.05186882 -0.058008246 -0.032623854 -0.0085239755 0.11276689 -0.003295861 -0.061012153
-0.019396665 -0.04669062 0.006164392 -0.07599577 0.023025706 -0.11282798 -0.0067213587 -0.06140189
0.013331405 -0.0052571762 -0.1362285 -0.015112182 -0.15030909 -0.10353214 -0.11862982 -0.12806751
-0.019471765 0.021239428 -0.055735838 -0.122359015 -0.018023513 -0.036211487 0.06389377 -0.031386755
-0.03578858 -0.106661245 -0.04410672 -0.0058429446 -0.017756764 -0.056640133 -0.023238493 -0.047762454
0.043115485 0.0021608977 0.026409606 -0.08107092 -0.038927425 0.056588084 0.074002534 0.067409575
0.034614105 -0.049712945 0.05437098 0.10782266 0.06477542 0.012902636 0.065394975 0.09758444
00000000: 8003 d8bd 2c39 90bd 5755 66bd f575 06be
00000010: 2111 8a3d e64b 23be 1f78 e3bb 287f 17bd
00000020: 75c2 983b 3287 053d c928 febd 71a9 aebd
00000030: 4ef8 4cbd 2381 903b f7a1 713d 4fef 25bd
00000040: 64a8 80bd 83f8 10bd e7fa f2bd f58f 25bd
00000050: ae37 1abe dd47 a7bd 1979 07be 16c5 80bc
00000060: 4b07 0e3d 5295 e9bd 4316 d4bc 7034 35be
00000070: d7d9 f0bd 417f aa3d cb6d d43b 9b6b 06be
00000080: 8c40 2abd 48b3 9abd 5df0 583d 92cd f6bd
00000090: 68e2 17bb 77c3 59bd 28a7 c6bd 155f 523d
000000a0: 02b1 82bd 832a 23bc d43a a0bd 7346 ec3b
000000b0: 6c8d cc3d 416f c4bd 8579 533c 6608 e2bd
000000c0: 9096 483c 883c 703d 9465 8dbd 2f3d 07be
000000d0: af4f 06be f630 82bd 1838 e63d 7096 a5bc
000000e0: 4d8f c53a 54e5 79bd a168 8fbd febe 863d
000000f0: 798f a5bd 2cb2 43bd 40a5 f2bd 5646 d2bd
00000100: ad07 d13d d429 15bd c8a6 3dbd 6c75 81bd
00000110: 1557 b5bb f020 bf3c 4abe 71bc ee9b a7bd
00000120: af45 3fbc d749 62bc 2686 99bc c0fa 7f39
00000130: 09f1 1ebe 52b5 bdbc 71e3 42bd 79f3 a0bd
00000140: 8742 e9bd aa01 833b 202f d2bc d9bf 0bbe
00000150: f47f 87bd 518e 01be 2e2b 27bd 1b9b 46be
00000160: f6b5 f5bd 7837 abbc 0760 693d 406d 70bd
00000170: 00c4 853c c684 9bbd 653c a9bd 6abd 033e
00000180: 032a bbbb ce7c 87bc 5efb 063e ca98 103e
00000190: 19d5 b6bd dc0e ddbd 49bd 27bd 7dbb 13bc
000001a0: f78f 9cbd f5d4 5abd 582b bb3c ef95 84bd
000001b0: 4396 69bb d332 8abd 3fdc bebd 6fac e2bd
000001c0: 8891 01be 705f 99bd b192 dbbd 7e6d 1b3d
000001d0: 4cee 16bd 356a 78bd 607e 78bd 4be8 48bc
000001e0: 049f 363e 0ad7 003e 71db 573d 6038 833d
000001f0: e4dc 043e 7fa3 b53c 3aed 46bc a3f7 e9bd
00000200: fa7b ffbd 1107 15be fa76 a9bc a1e7 d4bd
00000210: b261 13be 0439 a7bc fb66 1dbb 5144 22be
00000220: 04cd 17be 1006 22be 26e3 8ebc e46d 18be
00000230: c979 c03b 6130 43bc 6e63 333b d175 1ebd
00000240: d776 293d d17e fc3d ccb1 833d 938e fd3d
00000250: 060d 783d 8b17 10bc f5e4 083d 5b4e be3d
00000260: 2bc8 eb3c 7afd 09bd 2fe1 8cbd 205c 353d
00000270: 65cb babc 74cd 48bd f3d9 48bd a775 ccbd
00000280: 10b9 473d a0de a8bc 16a3 1a3d 92f5 8dbc
00000290: e1d7 8ebc 606f cebd 8328 b1bc 6723 fabd
000002a0: a089 9cbd 0601 83bd 1134 f3bc 6e6e bebd
000002b0: 6aac 093d c80b c5bd 5de4 823c 2fe1 753d
000002c0: e1f1 a63d 79fe 8b3d e4bd a5bd ba7b 55bc
000002d0: 8807 003e 9ca1 043e 79e9 83bd 081c 40bd
000002e0: 4934 fdbc a90e 0c3e d74e 153c 8380 b1bd
000002f0: dfe2 15bd 4594 7abc 0f10 293d 022e 4cbd
00000300: e08d 0d3d d73a 10bb 9fb9 ff3c 4494 aebd
00000310: 81bd 9d3c 24d3 a1bd e272 91bd 09a3 0bbd
00000320: 3e13 23bd 6674 54bd 0e9a 6dbd 97a0 05bd
00000330: 25a8 0bbc 54f2 e63d 5fff 57bb e1e7 79bd
00000340: c1e5 9ebc aa3e 3fbd abfe c93b aca3 9bbd
00000350: 68a0 bc3c 5b12 e7bd d83e dcbb 8c80 7bbd
00000360: f76b 5a3c 6444 acbb 7c7f 0bbe 1699 77bc
00000370: a0ea 19be a908 d4bd 31f4 f2bd 2124 03be
00000380: 4083 9fbc 4ffe ad3c 434b 64bd 5d97 fabd
00000390: 0ca6 93bc 7f52 14bd bdda 823d 668f 00bd
000003a0: 0c97 12bd 3671 dabd 3fa9 34bd 2c76 bfbb
000003b0: a276 91bc 7cff 67bd a75e bebc 90a2 43bd
000003c0: dd99 303d d99d 0d3b f558 d83c 8308 a6bd
000003d0: 5d72 1fbd e8c8 673d a48e 973d 080e 8a3d
000003e0: 85c7 0d3d cd9f 4bbd 1bb4 5e3d 20d2 dc3d
000003f0: faa8 843d 9465 533c cded 853d 5ada c73d

sequential_1/conv2d_3/BiasAdd/ReadVariableOp:0 f4 [32]
0.017669285 0.042101618 0.00069851323 -0.015404778 0.016684944 0.034917787 0.10256035 -0.027801892
0.039445397 -0.020821704 0.084441595 -0.016170984 0.011539496 0.18429706 -0.0068736 -0.075111195
-0.0296926 0.046742387 0.04598805 -0.037265833 -0.0022780052 0.032224003 -0.25353578 -0.0965975
0.028624292 0.00022906605 0.0034035183 0.0043007443 0.062297314 0.04242477 0.0083620455 -0.09018326
00000000: 2dbf 903c bf72 2c3d 6e1c 373a 5264 7cbc
00000010: ddae 883c f405 0f3d 290b d23d cbc0 e3bc
00000020: 7f91 213d 4792 aabc b7ef ac3d 0379 84bc
00000030: 2710 3d3c 5eb8 3c3e f03b e1bb e6d3 99bd
00000040: e53d f3bc f274 3f3d f75d 3c3d 0fa4 18bd
00000050: 964a 15bb 51fd 033d 71cf 81be e9d4 c5bd
00000060: 7e7d ea3c 7331 7039 900d 5f3b 42ed 8c3b
00000070: 782b 7f3d 98c5 2d3d f600 093c 00b2 b8bd
