models/traffic_sign_classifier_v2.onnx (onnx, 458061 bytes, 12 tensors)

sequential_2/dense_8/MatMul/ReadVariableOp:0 f4 [64, 7]
000000 40 d2 a1 bd a7 62 36 be 27 53 93 3d 5e 5a fd 3b
       -0.0790143 -0.1781107 0.071935944 0.00773172
000010 d8 51 34 3e 3b f7 5b be f1 f5 61 3e 9b 06 81 3e
       0.17609346 -0.2148103 0.22066475 0.25200352
000020 ec 1e 96 3e 1c 41 cc be 7d 7d dc 3d 63 db 63 be
       0.29320467 -0.39893425 0.107661225 -0.22251658
000030 3d 85 5c 3e d7 59 56 3e a4 d4 64 3e 73 b6 ed bd
       0.21535201 0.20932709 0.22346741 -0.11607065
000040 69 95 30 bd d2 1c 4c 3e ec e2 86 be 6e b5 3f bc
       -0.04311124 0.19932869 -0.26345003 -0.011700971
000050 c3 f1 ea be 75 2b fb 3d 1a 16 1f be 6d 82 2f be
       -0.45887575 0.12264148 -0.15535775 -0.17139597
000060 00 f9 b9 be 3e 35 89 be 5f 08 6e bc d3 07 18 3e
       -0.36322784 -0.26798433 -0.014528363 0.14846735
000070 97 0f e7 3d 3e d1 22 3d 0e ec 1a bd 10 61 28 be
       0.112822704 0.03975033 -0.037822776 -0.16443276
000080 09 e9 ef 3d b0 d5 3d 3d 03 17 74 3e 59 9d 82 3e
       0.1171437 0.046346366 0.23836903 0.25510672
000090 41 fb 51 3e 81 07 8d 3d ad d6 10 3e 6c 3d 96 be
       0.20506002 0.06886197 0.14144392 -0.29343736
0000a0 0e 39 51 3e cc 02 ce be 8c 1d 37 be fc 28 83 bd
       0.20431921 -0.4023651 -0.17882365 -0.064043015
0000b0 c4 74 e9 3d 71 8c 32 3e 8f a7 24 be 02 e1 b4 bd
       0.113992244 0.17436387 -0.16079544 -0.08831979
0000c0 4b 89 88 3d 47 60 8a 3e 66 60 1e be 5e dd f3 3d
       0.066668116 0.2702658 -0.1546646 0.11907457
0000d0 28 70 15 be 53 05 94 bd 03 a0 a3 3d d2 86 b0 bd
       -0.14593565 -0.07227578 0.07989504 -0.08619465
0000e0 b9 26 a0 bd 5e 4d 4d 3e ef 2d 28 3e d4 af 6e 3e
       -0.07819886 0.20049044 0.16423772 0.2330926
0000f0 ae 36 15 be 74 18 56 be e1 6b 78 be 3a 9a 1f 3e
       -0.1457164 -0.20907766 -0.24259903 0.15586177
000100 83 06 38 3e e5 d3 90 bd d2 4b 4e be a7 8d 8e be
       0.17971234 -0.07071666 -0.2014611 -0.27842447
000110 13 63 3a 3e 7d 30 9d 3d 2b 1e 8f 3e a6 3d 47 3e
       0.18201856 0.07675264 0.27952704 0.19457111
000120 fe ae 25 be 9a 37 cd 3d b7 55 8b bd 7f 64 65 bd
       -0.16180035 0.10020371 -0.06803458 -0.056004044
000130 07 0e 3b be 17 2d 63 3e 77 90 4c bd 6e 77 e5 be
       -0.1826707 0.22185169 -0.04994246 -0.4481768
000140 7d dd 8a 3e 5e ee af be 6d 12 37 bc 14 63 14 bf
       0.27122107 -0.34361547 -0.011173827 -0.5796368
000150 6c a8 14 bd 04 d5 a1 be f4 78 9c 3c f4 62 84 3d
       -0.036293432 -0.3160783 0.019100644 0.06464186
000160 dc 1e f0 bd e1 91 ae be e5 bb 1b bd 0e d2 80 be
       -0.11724636 -0.34095672 -0.038020987 -0.2516026
000170 d5 79 02 bf 12 69 db bc be d0 b8 be 27 a1 64 3e
       -0.5096715 -0.0267835 -0.36096758 0.223271
000180 0d 25 96 be 5b 2d 28 bd b4 ac 90 be d4 3b 65 be
       -0.29325143 -0.04105888 -0.28256762 -0.22386104
000190 ee 3e 24 3e 05 78 93 be 7a 2b 4d bd b8 17 03 bf
       0.16039631 -0.28802505 -0.05009029 -0.51208067
0001a0 42 e0 66 3d 41 cd 35 3e 59 0e 9f be cb 29 90 3e
       0.056366213 0.1775408 -0.31065634 0.28156886
0001b0 a9 d1 04 bf ca 26 a5 3e 6d 5d bd be 4c f6 53 be
       -0.51882416 0.32256156 -0.3698534 -0.20699424
0001c0 72 75 25 3e 5e 03 1b be 03 94 20 bd 10 c5 4d be
       0.16158083 -0.15138003 -0.039203655 -0.20094705
0001d0 aa eb 0b bd 2a ed 96 be 1e 51 31 be 73 e1 74 be
       -0.034160294 -0.29477817 -0.173161 -0.23914127
0001e0 53 ca 44 be 66 4d de bd 89 d0 35 be e4 7a 15 be
       -0.19217806 -0.10854606 -0.17755331 -0.1459766
0001f0 04 50 4b 3e f9 78 41 3e 02 dd 90 bd eb 9c 83 3d
       0.19854742 0.18893804 -0.07073404 0.06426414
000200 ea 8c 0f bd 5c 45 93 3b 54 11 b0 be 5e d9 05 3e
       -0.035046495 0.0044943523 -0.3438822 0.130712
000210 d4 d0 f2 3b 92 24 14 be 7f af 49 3e e1 0a 97 bb
       0.007410148 -0.14467075 0.19695853 -0.004609451
000220 48 5a 24 3c d7 31 10 bd 2f 6a 79 3e 59 21 0b be
       0.01003129 -0.03520378 0.24356912 -0.1358694
000230 1a 56 51 be d0 dd bb 3c be ab 73 3e eb cd 0f 3e
       -0.20443001 0.022932917 0.23795983 0.14043395
000240 e1 83 c8 bc fa ce db bd e0 2e ca 3d 5c 9a 8d be
       -0.024476947 -0.10732837 0.09872222 -0.2765683
000250 44 b0 03 3e 61 b7 7b bd bc 75 6c 3c 2b 9a 45 be
       0.12860209 -0.06145418 0.014432367 -0.19297092
000260 03 07 65 3e 08 aa 02 be 3b d9 68 bd 83 51 ed be
       0.22365956 -0.12760174 -0.056847792 -0.4635125
000270 ec 10 6a 3e 53 9d 16 bf 76 27 69 3e c1 fa 01 bf
       0.22858018 -0.5883381 0.2276896 -0.50773245
000280 19 b9 fb be 53 9d f3 bc 76 1f 5e 3e c8 8f a8 be
       -0.49164656 -0.029738104 0.21691689 -0.32922196
000290 4e 91 aa 3e a4 9f d9 be a0 b9 b9 bd 37 fe af be
       0.33313984 -0.4250461 -0.09068608 -0.34373638
0002a0 cb 2c 4d 3d cd ba b3 be bd fb 2d 3d c2 70 d4 be
       0.050091546 -0.35103455 0.042476404 -0.41492277
0002b0 54 89 55 bc e3 0f 6b be 7b e9 a2 3e 76 0e 06 be
       -0.01303323 -0.22955279 0.31818756 -0.13091454
0002c0 12 2b 46 3e 2f ab 12 be 0d 70 4e 3e 96 9e bf be
       0.19352368 -0.14323114 0.20159931 -0.3742568
0002d0 69 5d 42 bd 89 f5 d7 be 79 0e c6 be 49 76 a4 3d
       -0.047452364 -0.42179516 -0.38682917 0.080303736
0002e0 9a df 3b 3d 10 da 98 bc 63 18 e0 bd 4c 4e 70 3d
       0.04586754 -0.018658668 -0.109421514 0.05866842
0002f0 68 06 20 bf 0b 6c 87 be 7d 26 12 3d 3d 79 62 3e
       -0.62509775 -0.26449618 0.035681237 0.22116561
000300 2d f5 d9 3d 4d 45 91 3e ff ff 5e be e0 4b 83 be
       0.10642467 0.28373185 -0.21777342 -0.25643826
000310 a9 b1 7e be a8 0c 8e 3e 52 a5 53 bc e9 be 9b bd
       -0.2487246 0.2774403 -0.012917833 -0.076047726
000320 8b 96 db bc 8a 41 0d 3e 67 aa 46 bd a7 98 6c 3d
       -0.026805183 0.13794532 -0.048502352 0.057762768
000330 9d 68 8e 3e da 08 ee bd 50 35 5b be 0e 17 d0 3d
       0.2781419 -0.11622782 -0.21407056 0.10160647
000340 5b 56 a7 be 7a 20 44 be 69 df d0 bd 82 0e 13 3e
       -0.32683071 -0.19153014 -0.10198862 0.14361003
000350 62 98 43 3e 61 83 c9 3c 52 18 89 be 9e e5 6a be
       0.19101098 0.02459878 -0.26776367 -0.22939155
000360 7c 3f 18 3d 93 4d 77 3e 65 b7 33 3e 03 cf 10 be
       0.03716992 0.24150686 0.17550428 -0.14141469
000370 dd 2d 58 3e 5f 54 bb 3c f7 e3 67 be 16 ba 3c be
       0.21111245 0.02286738 -0.22645555 -0.18430361
000380 19 a0 20 be 86 2a 3c 3e d8 e5 a0 bc d9 a1 7b 3e
       -0.15686072 0.18375596 -0.019640848 0.24573459
000390 68 f8 81 be d4 cd 9b 3d 6d 13 37 bf 68 29 65 3e
       -0.2538483 0.07607618 -0.71514016 0.22379076
0003a0 2f 0a 26 be 4e 51 d0 bd 96 9f 39 be e9 18 b1 3b
       -0.16214822 -0.10171758 -0.18127283 0.005404581
0003b0 e3 40 af 3d 94 84 31 be 2f 79 93 3e 90 f0 b5 be
       0.08557298 -0.17335731 0.28803393 -0.35535097
0003c0 98 74 1b 3d 45 f0 ca be bf 32 d1 bc 29 2e 13 3c
       0.03795299 -0.39636436 -0.025536893 0.008983173
0003d0 55 69 88 3d f8 ef be be ac d2 07 3e 57 10 d8 3d
       0.066607155 -0.37292457 0.13263959 0.105499916
0003e0 66 09 5a 3e 7c 83 ed 3d 15 7a 2f 3e 98 a2 19 be
       0.21292648 0.11597344 0.17136414 -0.15003431
0003f0 aa 3e 10 be 42 bf 7c be 7b ba 67 3e ac 8f ad be
       -0.14086404 -0.24682334 0.2262973 -0.33898675

sequential_2/dense_8/BiasAdd/ReadVariableOp:0 f4 [7]
000000 da 59 6a 3e bd 7f 5a be 8d 01 1c be a3 c8 63 3e
       0.22885838 -0.21337791 -0.15234967 0.22244506
000010 1a 03 10 bd a3 0d 85 bd 5c dc 0e be
       -0.035159208 -0.064967416 -0.13951248

sequential_2/dense_7/MatMul/ReadVariableOp:0 f4 [128, 64]
000000 73 e3 97 3d 45 0f a9 3d 6c 3c 2f bc 1d 74 34 3a
       0.07416429 0.082548656 -0.010695558 0.00068837573
000010 19 15 0b be 15 69 68 be 3b 36 d8 bd fe 8d 9e bd
       -0.13582267 -0.22696336 -0.10557219 -0.077419266
000020 02 dd 0e 3e ea bb 41 be cf 94 b4 be 30 79 a0 3d
       0.13951495 -0.1891934 -0.35269782 0.07835615
000030 08 94 68 bd fb 34 54 3c 05 0c 94 3b 2d 90 9c be
       -0.0567818 0.012952085 0.0045180344 -0.30578747
000040 4d 23 d6 bd 02 a8 9a bc 3d cc ca 3d 21 c5 aa bd
       -0.10455952 -0.01887894 0.099022366 -0.083383806
000050 ed ba 74 3e 27 d7 ae bc 7e 39 49 be 13 b3 45 3d
       0.23899432 -0.021342827 -0.19650838 0.04826648
000060 9b 8e fc 3d 53 bb a2 3c f5 c0 26 3e 9f 67 2f 3d
       0.12331887 0.019864714 0.16284545 0.04282343
000070 be a0 fb 3c c1 73 cb be 69 6e 86 3e b1 df d0 3d
       0.030716296 -0.3973675 0.2625611 0.10198916
000080 99 5b c0 3d d0 dc 80 be 7a 69 c4 3c 8d f9 62 3e
       0.09392471 -0.25168467 0.023976076 0.22165509
000090 fe 05 80 3d c2 91 eb 3d f9 2b 4d 3e a3 4c 19 3e
       0.06251143 0.115024105 0.20036305 0.14970641
0000a0 84 75 c6 be bd 1d ef 3c 29 d0 51 3e c2 3c 19 be
       -0.38761532 0.029188985 0.20489563 -0.14964584
0000b0 5b d3 70 3c cc 2a 7b bc 24 b3 6a be 31 b3 81 be
       0.014698829 -0.015330028 -0.22919899 -0.25332025
0000c0 15 e0 4e be d1 e2 46 3e 87 54 20 3e c6 94 58 3e
       -0.20202668 0.19422461 0.15657245 0.21150503
0000d0 49 fb 39 3d a6 6e 6b be b0 0a 0c 3e 2a 85 86 3d
       0.04540566 -0.22991428 0.13675952 0.06568368
0000e0 35 81 17 bd ee 2f 41 3c eb 6a 39 3d 7d 0b 03 3e
       -0.036988456 0.0117912125 0.04526798 0.12797351
0000f0 5a 96 d6 3d f5 77 70 bd 62 a8 a1 3d 7c 39 86 bd
       0.10477896 -0.05870815 0.078934446 -0.06553933
000100 87 ef 7e 3e 7f b2 19 bd 0b 13 13 be d0 f8 3b bb
       0.2489606 -0.037523743 -0.14362733 -0.002868224
000110 fe bc 95 3e c5 a1 ec 3d 3a 59 54 bd fe 95 f1 bd
       0.29245752 0.115542926 -0.051842906 -0.11796187
000120 13 4e 97 3d 8b 23 21 be 30 98 7b be 28 f6 c4 3d
       0.07387938 -0.15736215 -0.24569774 0.09617263
000130 5b 25 27 be b1 7a 1c 3e bd dc 8a be 63 b4 d0 be
       -0.16322844 0.15281178 -0.27121535 -0.40762624
000140 66 4e 2e be f0 8e f9 3d 55 e5 8e bd ea de 2c be
       -0.17022094 0.12185466 -0.06977335 -0.1688191
000150 db 53 e2 3c 6c d2 64 3d ec 76 c8 be 67 43 8b 3d
       0.027627876 0.055864736 -0.3915323 0.06799965
000160 97 04 98 3d e4 7e f6 3d 76 14 f4 3d 41 bb cf bd
       0.074227504 0.12035921 0.11917965 -0.10143138
000170 6c 1f cc 3d 21 29 b8 3d fa 66 40 bd 1e 51 65 3d
       0.09966931 0.0899222 -0.046973206 0.055985563
000180 01 02 eb 3d 9a 57 33 be 96 86 f3 bd 96 ad a3 bc
       0.114749916 -0.17513886 -0.118909046 -0.019980233
000190 2c fc 2e be f2 81 78 bd 27 57 8c bd 67 26 6b bd
       -0.17088383 -0.0606708 -0.068525605 -0.05740967
0001a0 55 35 2a 3d 81 16 87 3b d7 86 2a 3e 6e 78 b5 3e
       0.041554768 0.0041225557 0.16653 0.35443443
0001b0 38 d1 b1 bd f5 5d 1f be 68 20 78 be 2c b3 b8 be
       -0.086824834 -0.15563186 -0.24231112 -0.36074197
0001c0 ea da 1a be 7b bb 4e 3e b5 64 29 3c d9 44 84 3d
       -0.15122572 0.20188706 0.010338952 0.06458444
0001d0 61 d4 84 3d 03 05 d5 3b 23 00 88 be 6f 90 9d be
       0.064858206 0.0065008416 -0.26562604 -0.30774257
0001e0 f7 0e d5 bd 46 15 7e be 16 fc cc bc 89 ad 3a 3e
       -0.10403245 -0.24812803 -0.025022548 0.18230261
0001f0 6e f2 56 3e 7a 48 fa 3d 46 89 25 3e b1 f2 e4 bd
       0.20990917 0.12220855 0.16165647 -0.11179102
000200 eb db 11 3e 37 4c be 3c 62 9f 52 3e 47 09 a9 bc
       0.14244048 0.023229701 0.20568612 -0.020634307
000210 a9 6e 1a bc 9f b2 d3 bc 58 a4 82 3d 7f 43 fe 3d
       -0.0094257975 -0.02584201 0.06379002 0.124152176
000220 3e d5 15 be 8a 0d ab 3d 9d c7 2e be ac b7 dd 3d
       -0.14632127 0.08352192 -0.17068334 0.10826048
000230 8f 20 d5 bd 9a 09 96 3e 4b 4e 38 bd 8b da b1 3d
       -0.10406601 0.293042 -0.04499654 0.08684262
000240 84 f6 97 bd c7 58 b6 3d f0 7a a6 3c 3a a8 ad bc
       -0.07420066 0.08903652 0.020322293 -0.02119838
000250 f8 f8 fc bd 50 61 7b 3d 92 d3 ea 3c bf 29 b6 3c
       -0.123521745 0.0613721 0.028665338 0.022236703
000260 5a 91 81 bd a9 34 14 be e9 4f 6b be 02 bd 25 bd
       -0.06326552 -0.14473213 -0.22979702 -0.040463455
000270 9f ae 05 bd ad 4f 53 be 2c c0 30 3d fd 11 00 be
       -0.032637235 -0.20635863 0.04315202 -0.12506862
000280 5c 59 d1 3d 3d 8f 30 3e 76 72 46 3d 78 d7 73 3c
       0.10222122 0.17242141 0.048449002 0.014882915
000290 bb 15 cf be 46 52 05 3e 8b d0 88 3e 1d a5 7c bd
       -0.40446267 0.13019666 0.26721606 -0.0616809
0002a0 61 68 e3 3d 5c c9 fb bc d9 1a 10 3e 07 b7 89 3b
       0.11103893 -0.030735664 0.14072742 0.0042027268
0002b0 cd d5 cf bd e6 73 76 3e d8 3f c0 3c b8 e0 91 bd
       -0.10148201 0.24067649 0.023467943 -0.0712294
0002c0 ee 42 90 3c 9c 2e f0 bb ad 47 eb 3d d1 e0 11 3d
       0.01761004 -0.007329775 0.114882804 0.035614792
0002d0 42 f7 ab 3e 4e cb 9d 3c b1 bd 61 bd b3 8c 8e be
       0.3358708 0.019261982 -0.055112544 -0.2784172
0002e0 b2 f4 b7 bc bf 68 48 be 5b 1c 3e 3d 26 d0 8a 3d
       -0.022455547 -0.19571207 0.04641376 0.067779824
0002f0 53 fd 9e be 80 84 13 3e 46 06 19 3e 8d 2f f7 3d
       -0.31052646 0.14406013 0.149438 0.120696165
000300 86 d0 e9 bd 66 1e 15 3c 36 24 25 be 52 9f a4 bc
       -0.11416726 0.009101486 -0.16127095 -0.020095501
000310 0c 0f 5c bd 25 26 ad 3d 58 fe bb bd 31 b9 da bc
       -0.053725287 0.08454541 -0.091793716 -0.026699634
000320 dd eb dd 3d 0b 1f 12 3e e9 ac 40 3e 5f 61 70 3d
       0.10836003 0.14269654 0.1881596 0.05868661
000330 8a 07 9e bd 0f c6 18 be db 7b 1c 3e 30 f9 2c 3e
       -0.07716282 -0.14919303 0.15281622 0.16891932
000340 a9 c5 33 3d 0f 0a bd be d8 63 0d 3d 04 62 3b 3e
       0.043889675 -0.36921737 0.034519047 0.18299109
000350 e6 4e 79 3a 8e 6a eb bc 2a eb 16 3e a8 9e bb bc
       0.0009510353 -0.028737333 0.14738145 -0.022902802
000360 85 25 08 be 2d 64 6e 3d 06 33 36 3e e0 cb 02 3e
       -0.13295563 0.058201004 0.17792901 0.12773085
000370 74 d6 17 3e d6 86 35 3e 19 6d 8c bd 9e 14 83 3d
       0.14827901 0.17727217 -0.06856746 0.06400417
000380 c0 28 1f 3e 9e f8 9b ba ab 08 f1 bd bd 53 d8 3c
       0.15542889 -0.0011899655 -0.117692314 0.026407117
000390 d8 25 24 bb bb e6 96 bd e1 ab 31 be 74 08 4d 3e
       -0.002504697 -0.07368227 -0.17350723 0.20022756
0003a0 45 34 5c 3d a6 ba 34 bd 82 26 4e 3c 61 67 22 3e
       0.053760786 -0.044123314 0.012582423 0.15859748
0003b0 1b d5 8d bc 4f 5b 13 3e 2f 71 0e be a2 26 e4 3d
       -0.01731353 0.143903 -0.13910364 0.11140181
0003c0 eb 4a 6f bc 67 f0 19 be 5b a9 51 bc fe 7c 9d be
       -0.014605264 -0.15033112 -0.012796725 -0.30759424
0003d0 8c fa 63 be 32 fe 66 3b d7 1f f4 3d 6e 8d 60 3d
       -0.22263545 0.0035246727 0.119201355 0.054822378
0003e0 72 6b 53 3d 51 f2 21 3d 72 ae 7c bd 0b ab 7b bd
       0.05161614 0.03953773 -0.0616898 -0.061442416
0003f0 0d 73 a0 3d 55 ce de bd 69 22 97 be 32 5b 9e bd
       0.07834444 -0.108791985 -0.2951844 -0.07732238

sequential_2/dense_7/BiasAdd/ReadVariableOp:0 f4 [64]
000000 07 0a 21 3e 83 84 2e 3e 6d ee e5 3e 5c ef 61 3e
       0.15726481 0.17042737 0.44908467 0.22063965
000010 45 9a f2 3c 5a 3d a7 3e 67 05 ef 3d 11 e8 81 3e
       0.029614577 0.32663995 0.11670952 0.25372365
000020 b4 de 73 3e 77 0d 5a 3e d7 91 9b 3e f0 6e cd 3e
       0.23815423 0.21294199 0.30384704 0.401237
000030 79 33 9b 3e 25 90 16 3d 47 d8 60 bd 3a 12 8e 3e
       0.30312708 0.03675856 -0.05489376 0.2774828
000040 48 08 8e 3e 0b 66 e0 ba 4d aa 09 be 8b f2 26 be
       0.27740693 -0.0017120255 -0.13443871 -0.1630346
000050 ec dc 87 be f0 06 81 bd 04 40 a4 3e 75 fb 65 3e
       -0.26535738 -0.06300151 0.3208009 0.22459204
000060 6b ef 19 bb b9 61 d6 3d c0 02 b3 bd 63 fa 1e 3d
       -0.0023488651 0.10467858 -0.08740759 0.038813006
000070 81 cb 57 3c e7 22 e1 3d 63 24 07 be 20 2f 9e 3e
       0.013171078 0.10992985 -0.13197474 0.3089533
000080 cb 1c 41 3e d7 b8 78 3e ff 2d a5 3e 77 6f 21 3e
       0.1885864 0.24289261 0.32261655 0.15765177
000090 8e b4 b4 bd 70 22 29 bd 8b 0f 07 3f 06 e4 a9 3e
       -0.088235006 -0.041292608 0.5275809 0.3318178
0000a0 00 42 91 3e 4f 3c c9 3e 41 a1 d9 bc a2 e3 d8 bd
       0.28370667 0.39303824 -0.02656615 -0.105902925
0000b0 45 7b 7d 3e 86 69 93 3e 12 13 82 3e 4b 24 b0 3e
       0.24754055 0.28791445 0.25405174 0.3440269
0000c0 22 c6 9d 3e 2b d5 ba 3e fb ed 9b 3d a4 6e 48 3e
       0.30815226 0.3649076 0.076137505 0.19573456
0000d0 d8 25 3e 3e 61 a5 17 3e fe f0 6c 3e da 66 a1 bb
       0.18569124 0.14809181 0.23138806 -0.004925591
0000e0 75 3c d8 3d 14 ca b1 3d b0 03 3c 3e 77 d3 66 bd
       0.10558406 0.086811215 0.18360782 -0.056354012
0000f0 d4 75 ab 3a 6f 79 74 3e 68 b5 be 3d 84 92 7b 3e
       0.001308138 0.23874448 0.09311944 0.2456761

sequential_2/dense_6/MatMul/ReadVariableOp:0 f4 [48, 128]
000000 d5 23 d9 3d 1a 29 a0 3d 55 9f 4d be 32 03 00 be
       0.106025375 0.078203395 -0.20080312 -0.12501219
000010 c1 a8 cb bd b6 17 37 be df 4d df bd e6 3e e1 bd
       -0.09944297 -0.17880139 -0.109035246 -0.10998325
000020 fd 45 7a be 0e 48 87 3e f3 2b 80 be e1 03 17 be
       -0.24440761 0.2642216 -0.2503353 -0.14747573
000030 a9 1a a0 be 73 d5 91 be 94 75 8a be 06 bc 27 3e
       -0.3127034 -0.2848316 -0.2704283 0.16380319
000040 e1 34 9b 3c d6 fb 8e bd 12 61 11 be a9 70 86 3e
       0.018946113 -0.06981628 -0.14197186 0.26257828
000050 9e 25 15 be 19 f3 1d be f4 e2 da bd eb a6 92 bd
       -0.14565131 -0.15424766 -0.10687819 -0.07160743
000060 72 f2 37 be 1d 17 58 3e 25 c0 48 3e bc 96 f4 3d
       -0.1796358 0.21102567 0.19604547 0.11942813
000070 99 7d eb bd 5b 0e 4e be 4c 48 39 be e2 e2 0f be
       -0.11498565 -0.20122664 -0.18093985 -0.14051393
000080 06 31 6e 3c 7f e8 a3 bd be 67 bb bd ae 53 aa be
       0.014538055 -0.080033295 -0.091506466 -0.33266968
000090 4a 30 a9 3c eb 0d 51 be d6 3d f3 bd 4d a2 31 3e
       0.020652909 -0.20415466 -0.11877029 0.17347069
0000a0 f1 0e 6c 3e 55 0c a3 bd 55 88 2f be 21 98 40 3e
       0.23052575 -0.079613365 -0.1714185 0.18808033
0000b0 c9 23 7e 3e 14 b2 65 bd a2 ca 97 3e 68 bd c8 3d
       0.24818338 -0.05607803 0.29646784 0.098017514
0000c0 f2 6b 08 3e 38 d6 04 be b4 64 a8 3d 0e 73 c7 bd
       0.13322428 -0.12972343 0.082223326 -0.09738742
0000d0 8b ab 90 bd 14 54 66 bd 30 57 68 be 95 7e b8 3d
       -0.07063969 -0.056232527 -0.2268951 0.090085186
0000e0 01 0d 26 be c8 61 f6 3d 11 d8 cd bc a8 a6 97 be
       -0.16215898 0.12030369 -0.025127443 -0.29619336
0000f0 66 a1 21 3e f3 69 75 be dc 65 7e 3e 89 ca 38 3d
       0.15784225 -0.23966198 0.24843544 0.045115028
000100 ec 6b 87 3d a0 0b 0b 3e 28 a0 b0 3d 1b c8 58 bb
       0.06612381 0.13578653 0.086242974 -0.0033078257
000110 20 a4 b4 3e 9f c8 fa bd 1e f7 e8 bc bd 3f fa 3d
       0.35281467 -0.12245297 -0.028438147 0.12219188
000120 76 52 18 be f4 43 e5 3d 2b 35 4a be df 37 51 be
       -0.14875206 0.11194602 -0.19746844 -0.2043147
000130 ed bb 1b be e0 80 87 bd 80 99 64 be a1 f0 13 be
       -0.15208407 -0.06616378 -0.2232418 -0.14447261
000140 73 eb 20 bd 84 81 dc bd 86 49 24 be cf 23 54 be
       -0.039287042 -0.10766891 -0.16043672 -0.20716785
000150 8e d0 51 be 4a 84 93 3c 21 4d 06 be bf 6a 31 3e
       -0.20489714 0.018007416 -0.1311536 0.17325877
000160 f9 a9 5d 3e d4 28 8a bd 69 66 ec 3d da 96 2b 3d
       0.2164687 -0.067460686 0.11542971 0.04189191
000170 db 10 22 be 3f 21 91 be e5 bb 4d be c7 76 23 be
       -0.15826742 -0.28345677 -0.20091207 -0.15963279
000180 a7 52 d6 bc c0 65 96 bd 84 fe c3 bd 3a 9a 62 bd
       -0.026162459 -0.07343626 -0.095700294 -0.055322863
000190 2e 83 0e bc 41 0f 85 bd 7b 2e c0 bd 0f 7d b6 3d
       -0.008698268 -0.0649705 -0.093838654 0.08910572
0001a0 9f 16 38 be 64 0c 3a be d9 4a 25 bd d5 ae 92 bd
       -0.1797738 -0.18168789 -0.040354583 -0.07162253
0001b0 7b 97 26 3d 6e 03 6b bd 09 35 7a 3e 37 b6 06 3e
       0.040671807 -0.057376318 0.24434294 0.13155447
0001c0 8e 7b 46 bd 2b 9c ff bd ac 2b 01 be c9 bf c4 bd
       -0.048457675 -0.124809586 -0.12614316 -0.096068926
0001d0 e2 68 ff bd 23 87 ef bd 6a 14 45 bc 59 9b 6c be
       -0.12471177 -0.11695697 -0.012028793 -0.23106135
0001e0 17 7b e8 bd b5 be 04 3e e0 2e 89 bd de ca 14 bd
       -0.113516025 0.12963374 -0.06698394 -0.03632628
0001f0 bd e6 22 3e 05 f6 89 bd e0 24 24 be 70 c1 5a 3e
       0.15908332 -0.067363776 -0.16029692 0.21362853
000200 ee 2f 32 be c9 a5 63 be 84 85 e0 3d a9 c8 86 be
       -0.17401096 -0.22231211 0.10962966 -0.26324967
000210 9e 29 5a 3e 2a 59 82 bb 8c d9 e0 3d 55 e6 4a be
       0.21304938 -0.0039779143 0.10978994 -0.19814427
000220 00 f0 7e 3d 3d d7 3e be f8 64 06 3e ec 76 32 bd
       0.0622406 -0.18636794 0.13124454 -0.043570444
000230 70 08 3a 3e 77 0b 0d 3d 20 a2 3b 3e cd 56 74 be
       0.18167281 0.03443476 0.18323565 -0.23861237
000240 95 21 5a be 6c 6c c6 3d 9c 6c 5d 3d 0f b0 ea 3d
       -0.21301873 0.096886486 0.054058656 0.11459362
000250 f1 f7 a0 bc fd 53 9c bd 97 09 8b bd 5f aa 12 be
       -0.019649478 -0.07633207 -0.067889385 -0.14322804
000260 06 b5 8b 3c 95 bc 6e be d1 8f 7f be c1 fc f0 bd
       0.017054092 -0.23314126 -0.24957205 -0.11766959
000270 54 0e df bd c3 58 90 3d c1 85 cd 3b 7f ff 1d be
       -0.10891405 0.0704818 0.006272048 -0.15429495
000280 62 53 6a 3d a9 ca 6c be f0 ed 44 be 01 25 7e 3d
       0.057208426 -0.23124184 -0.19231391 0.06204701
000290 61 84 e3 bd 06 cf c1 be be de a6 3d dc 38 c3 bd
       -0.11109234 -0.3785326 0.081479535 -0.095323294
0002a0 39 43 80 bc e9 fe fc 3c df c3 32 be cb 5f 91 be
       -0.015657054 0.03088327 -0.17457531 -0.28393397
0002b0 61 6b 8f 3d 24 9d 13 be a7 58 8c 3d 2c 66 d6 bd
       0.07002903 -0.14415413 0.068528466 -0.104687065
0002c0 98 9b 89 be 14 a2 66 3b 01 85 26 be 74 34 9a 3e
       -0.2687652 0.003519182 -0.16261674 0.30118144
0002d0 0b 65 54 3d 7d 2d 82 be 92 66 c0 3d 96 2b 38 be
       0.051854175 -0.2542533 0.09394564 -0.17985377
0002e0 2a 5d d7 3d f0 1d 3e 3b 3a 83 19 be be 72 ba 3d
       0.105158165 0.0029009543 -0.14991465 0.091039166
0002f0 76 fa 40 3d 06 96 61 bd fc 49 2a be e8 36 38 be
       0.04711386 -0.055074714 -0.16629785 -0.17989695
000300 79 d0 af 3d 51 9e 06 bc 23 f8 5e be a0 f2 3a be
       0.08584685 -0.0082164565 -0.21774344 -0.18256617
000310 f7 9c 2d be 58 7f 14 be 45 36 3b be d4 ad 0a bd
       -0.16954409 -0.14501703 -0.18282421 -0.03385718
000320 1c 0a a8 3c 90 a1 a6 bd 48 b2 2f 3d 3b ba 60 3e
       0.020512633 -0.08136284 0.04289463 0.21946041
000330 c4 7c bb 3c 1b 36 4c bd c7 c2 25 bd bc be b7 3d
       0.022886641 -0.049856286 -0.040468957 0.089719266
000340 5b 75 a9 3e 69 a0 2e bc cb 53 8e bd fd e8 dd 3d
       0.33097348 -0.010658362 -0.06949576 0.108354546
000350 a9 2a ab bd a3 4b 15 3e c6 e9 3a be 79 10 00 be
       -0.08357746 0.14579634 -0.1825324 -0.12506284
000360 90 41 e7 bd 79 f8 92 39 b2 eb 74 be 13 78 a0 bd
       -0.11291802 0.00028032417 -0.23918036 -0.07835402
000370 38 0a f7 3d b6 88 02 bd d1 87 f4 3c 02 e5 51 3c
       0.12062496 -0.03186866 0.029849919 0.012810947
000380 23 e8 e6 bc b0 4b 8e 3d 12 e8 cb bc 3a 7b 61 bc
       -0.028186863 0.0694803 -0.024890933 -0.01376229
000390 1f a9 2b 3e 97 ef 1e 3d 92 02 a5 bd da c9 8b be
       0.16763733 0.03880271 -0.08057131 -0.27302438
0003a0 e1 a6 be bc c5 45 a5 3d d5 f9 1b be 58 73 09 bd
       -0.023272933 0.08069948 -0.15232022 -0.033557266
0003b0 25 2b 9c bd fb f8 25 3e 9f ad 9a 3d 71 9a ab bd
       -0.07625417 0.1620826 0.07552647 -0.08379067
0003c0 c5 1d 21 3e d1 51 81 3b 32 83 56 3c 4b b5 f5 3d
       0.15734012 0.003946521 0.013092803 0.119974695
0003d0 d8 1e 76 bd 9b 22 94 3d b9 d4 a0 3c 60 82 9b 3d
       -0.06008801 0.07233163 0.019632684 0.075932264
0003e0 fb 7c d8 3c 7c fb 2c be 1b f3 0e 3e 01 fc 0b be
       0.026426783 -0.16892809 0.13959925 -0.1367035
0003f0 44 87 38 3e 27 4b 92 3e 23 35 7f bc 05 99 ee 3b
       0.1802035 0.28572962 -0.015576634 0.007281425

sequential_2/dense_6/BiasAdd/ReadVariableOp:0 f4 [128]
000000 b9 11 0b 3e 1c 85 06 bd d1 f5 54 3e a8 10 44 3c
       0.1358098 -0.032841787 0.20796897 0.011966862
000010 da e5 59 3e 76 7b 10 3e 1c 5b 91 3d 89 1a 49 bd
       0.21279088 0.14109597 0.07097456 -0.04909757
000020 74 e2 1e be 12 dd 8d 3d a8 30 07 3e 1d 97 68 3e
       -0.15516073 0.069269314 0.13202155 0.22713895
000030 84 70 64 3e 03 a8 21 3c 83 8b fb 3d 6d 70 56 bd
       0.22308546 0.009866717 0.12282469 -0.05235331
000040 4c 9d 26 3e ab da 4a bc a2 60 8d 3c bb ee aa 3d
       0.16270941 -0.012381236 0.017257992 0.083463155
000050 22 4b 33 3d 1d c5 19 3d 69 41 aa bd 0e 1b 8c 3d
       0.043772824 0.037541497 -0.08313257 0.06841098
000060 69 36 4c 3d 73 32 ba 3d c4 63 df 3d 26 99 e2 3d
       0.049856577 0.09091654 0.10907701 0.11064367
000070 9d af e5 3d 54 fb 8a 3d a0 c6 0e 3e 10 1e 25 3d
       0.11215136 0.06786218 0.13942957 0.040311873
000080 c3 5a 07 3e 6b 91 20 3d fa 8b 62 bd 6b bc 55 3d
       0.13218217 0.03920118 -0.055309273 0.052181643
000090 8a 35 d4 bc 16 bf 3d be d0 de cb 3d d4 f9 04 3e
       -0.025904436 -0.18529925 0.099546075 0.12985927
0000a0 70 2b 8a bd 49 9f 9e 3d 4d 58 1d be a0 3a a4 3d
       -0.06746566 0.07745225 -0.15365715 0.08018994
0000b0 23 68 50 3e f6 51 52 3e 0a 37 90 3d 06 6c 07 3d
       0.20352225 0.20539078 0.07041748 0.033062004
0000c0 f3 96 16 3c 51 f5 ec 3c 09 9f a6 bc 79 0d 96 3c
       0.009191263 0.02892557 -0.020339506 0.018316971
0000d0 12 6f 7c 3d 26 6d 75 3d f2 dc e5 3d 79 78 ad 3d
       0.061629362 0.059918545 0.112237826 0.08470244
0000e0 5f 66 ca bc e1 43 0c 3e 33 aa e6 bd 0f 31 c0 3d
       -0.024707017 0.13697769 -0.11262932 0.09384357
0000f0 f5 4a 8b bd 93 81 2c be 81 55 dd 3d 1f 43 86 bd
       -0.06801406 -0.16846304 0.10807324 -0.06555771
000100 a4 96 4b 3d 61 db 36 3d 5d 98 32 3d bc 84 6c 3d
       0.04970421 0.04464281 0.043602336 0.057743773
000110 e3 23 27 3d 55 8c 0f be 99 16 62 be 51 29 ec 3d
       0.04080571 -0.14018376 -0.22078933 0.11531318
000120 d6 28 c9 3d 51 aa d6 3d 8e b2 a0 3d 42 44 26 be
       0.09822242 0.10481704 0.078465566 -0.16236976
000130 56 af 3a 3d fc 94 ae 3b 21 09 4f bd ef 92 26 3b
       0.04557737 0.005327819 -0.050545815 0.002541717
000140 c1 88 81 3d ca 1e 2d 3e 2a 96 1c bd 76 30 a0 3d
       0.06324912 0.16906276 -0.038229145 0.07821743
000150 be 08 06 3e 86 92 28 3e e4 40 17 be 93 31 fb 3c
       0.13089272 0.16462144 -0.14770848 0.030663287
000160 dc 2a 38 3e 96 12 f5 bd 3d a0 ed 3d 0e ab 46 3d
       0.179851 -0.119664356 0.11602829 0.048502974
000170 f1 a1 09 3e f9 b2 18 3d 66 e7 9b 3d d0 d3 f5 bd
       0.13440682 0.037280057 0.07612495 -0.12003291
000180 fe 13 4a be 8c 2a 6c bc 68 f1 65 3e 47 f6 90 3b
       -0.19734189 -0.014414441 0.2245537 0.00442389
000190 ce 08 fa 3d bf 09 30 3e ea 7b 6f 3d 81 96 2b 3e
       0.122087106 0.17191218 0.058467783 0.16756631
0001a0 d6 9c d8 3d 17 b2 c1 3d b8 41 34 be 70 03 8b 3d
       0.10576789 0.09457796 -0.17603195 0.06787765
0001b0 c7 59 05 be be 90 b4 bc 9c 46 a4 3d bc 10 17 3e
       -0.13022529 -0.022041675 0.0802128 0.14752477
0001c0 97 02 24 3d 7e 01 e8 3d f9 9b 56 3d 56 bf 93 3d
       0.040041532 0.113284096 0.05239484 0.07214229
0001d0 62 ae f1 3d 92 57 1d 3d cf 10 fe 3c e6 ba 85 bc
       0.11800839 0.03841359 0.031013874 -0.016324472
0001e0 c7 42 67 3d 79 bf 06 3e 21 7c b2 3d cc f7 02 bd
       0.05646017 0.13158979 0.08715082 -0.0319746
0001f0 83 64 fb 3d fd c5 d1 3c c8 5a 8a 3d de 67 6d 3d
       0.122750305 0.025607103 0.067555964 0.057960384

sequential_2/conv2d_8/Conv2D/ReadVariableOp:0 f4 [48, 48, 5, 5]
000000 94 c1 1a bd c5 fc fb bc c6 3e a3 bd 54 10 61 be
       -0.037782267 -0.030760178 -0.079709575 -0.21978885
000010 aa c8 fe bd 8a ae d0 bd b5 0d 43 3e da c5 83 bd
       -0.124406174 -0.10189541 0.19048198 -0.064342216
000020 4b 85 13 be e1 a9 27 be 7e d4 6b bd 32 9b e1 3d
       -0.14406316 -0.16373397 -0.057575695 0.11015929
000030 ca f5 a7 3d 88 1a b8 bd fe 4a 4b bd ba b6 17 bd
       0.082011774 -0.089894354 -0.049632065 -0.037039496
000040 2c ce ae 3d 3a 2f 61 3e 30 a1 5b 3d 57 11 09 bd
       0.08535418 0.21990672 0.053620517 -0.033463802
000050 a0 af 9b bc 2b 4b 00 be a6 30 91 3d e2 c7 1d 3d
       -0.019004643 -0.12528674 0.07089357 0.0385207
000060 b9 5e b8 3d c3 82 4f 3b 11 11 62 3d f8 83 2f 3e
       0.09002442 0.0031663633 0.055192057 0.17140186
000070 cf ed 63 3d 49 52 36 3d bc 7f 4a 3d a3 2a f4 3d
       0.055646714 0.044512067 0.049438223 0.11922195
000080 3c 60 e1 3d 82 75 6d 3b 7a 09 2e 3d ea 45 01 3e
       0.110046834 0.003623337 0.042489506 0.12624326
000090 90 20 04 3e 56 68 0f bd 50 31 06 3d 5d b1 f6 3d
       0.12903047 -0.035011612 0.03276187 0.12045548
0000a0 c3 29 2c 3e 8b 8e b9 b9 0e ad e6 bc b9 c9 e3 3c
       0.16812806 -0.00035392152 -0.02815869 0.02780615
0000b0 44 01 c1 3d 12 c3 3a be c5 85 ae bd ed 96 1d bc
       0.094240695 -0.18238476 -0.08521608 -0.009618503
0000c0 5c a2 57 bd f0 8f 02 bd 30 e9 96 bd 87 61 80 3d
       -0.052645072 -0.03187555 -0.07368696 0.06268602
0000d0 fa f8 8e 3d 03 ce 1b 3d f4 05 09 3e 1f b0 32 3d
       0.06981082 0.038038265 0.13381177 0.043624993
0000e0 85 55 90 bd b4 b8 a9 3c 74 28 39 bc 93 90 22 bd
       -0.070475616 0.020717956 -0.011301149 -0.039688658
0000f0 55 71 e4 3d b6 85 18 3c 7f c0 bf 3c f6 e7 8b bc
       0.11154429 0.009309223 0.023407219 -0.017078381
000100 5f 40 3f be 42 36 5c 3d 9f 29 48 3d 81 6d 1d 3c
       -0.186769 0.05376268 0.048867818 0.009608627
000110 47 2c df bd 32 14 c4 be 62 55 73 3c 13 64 27 bc
       -0.10897117 -0.38296658 0.0148519 -0.010216731
000120 30 b8 1a 3c 9d bb d3 bd b0 ef 77 be ed 8e 19 3e
       0.009443328 -0.10338519 -0.24212527 0.14995928
000130 fe b7 1a 3e a1 c8 b6 3c 0d 2f 13 be 00 43 12 be
       0.1510925 0.022312464 -0.14373417 -0.14283371
000140 ce 94 04 3e e8 ee 94 3d df 0b ee 3c 88 52 d0 bd
       0.1294739 0.0727213 0.029058395 -0.101719916
000150 73 27 1d 3d d5 41 e9 3d 0f b8 26 bd 54 35 90 bd
       0.0383677 0.113895096 -0.040702876 -0.070414215
000160 6f a6 f8 bd bd cd d0 bc 5c 1c 6b 3c 8e ca 4e bd
       -0.1214112 -0.025488729 0.014350023 -0.05048614
000170 1e 69 06 be 98 53 2b be 35 57 6f be 83 f9 90 bd
       -0.13126037 -0.16731107 -0.2337311 -0.070788406
000180 30 09 14 3e 2f 1a 1f be 8c c2 81 be 40 31 11 be
       0.1445663 -0.15537332 -0.2534374 -0.14178944
000190 73 9d 1c bb ff ad 9a 3c 74 ae 38 39 f3 49 fe 3b
       -0.0023897558 0.018881796 0.00017612596 0.0077602803
0001a0 cf 93 2f 3d dd 1e 91 bc 8b 72 12 bd 0b 9c fb bc
       0.04286557 -0.017714912 -0.035753768 -0.030714056
0001b0 6f aa 2e 3d 2e 97 d8 3c f9 6e 23 3d 14 d1 17 3d
       0.042643007 0.026439276 0.039900754 0.037064627
0001c0 39 21 08 bd fd fa a6 bb 9a 07 27 bd bf e3 08 bd
       -0.03323481 -0.005095838 -0.040778734 -0.03342032
0001d0 e9 9c e9 bc a6 3f 2b 3b 99 4d 96 3c 78 a5 ce bc
       -0.028517203 0.0026130467 0.018347548 -0.025225386
0001e0 81 6d 1a 3d 5a 78 1d 3d f5 36 57 bd 0e b0 28 3d
       0.037702087 0.038444854 -0.052542645 0.041183524
0001f0 aa a0 a9 3b a6 c0 ca bd 2c b9 06 be f4 4c 8f bd
       0.0051766234 -0.09900026 -0.13156575 -0.069970995
000200 5c a6 27 be fc de 5c be ac 90 05 be 97 5f 33 be
       -0.16372055 -0.21569437 -0.13043469 -0.17516933
000210 b7 5f 17 be f0 40 22 be 9f 46 cf bd 7b 61 37 be
       -0.14782606 -0.15845084 -0.10120892 -0.1790828
000220 48 1f 52 be c2 d2 c9 bd d2 64 db bd 8d 3d d2 bb
       -0.20519745 -0.09854652 -0.10712589 -0.006416029
000230 e2 7d 90 bd dc 09 5e 3d 26 4b 5f 3d f8 3b 84 bd
       -0.0705526 0.05420862 0.054515027 -0.06456751
000240 ca 4b 35 3c 8b 9c c8 bd c7 c3 ae bd 40 fc 93 bd
       0.011065433 -0.09795483 -0.08533435 -0.07225847
000250 ee f1 8a bd e1 bc c6 3c 36 f7 68 3d 94 a3 05 3e
       -0.06784426 0.024259986 0.056876384 0.13050681
000260 40 3a fa 3d cb b4 8c 3d 6f d4 bd bd fc be 69 bd
       0.122181416 0.06870421 -0.09269034 -0.057066903
000270 18 9c 8f 3d 7c 79 e2 3d 98 2e 4c 3d c6 bb 4b bd
       0.070121944 0.110583276 0.049849123 -0.04973962
000280 7d c2 d3 3c 48 75 07 3e 12 92 e8 3d d4 8d cd 3b
       0.025849575 0.13228333 0.11355986 0.0062730107
000290 6d 05 0d 3c ee 12 ef bc bd eb ee 3d 49 14 92 3d
       0.008607251 -0.029183831 0.11666057 0.07132775
0002a0 d6 b8 12 3d dd f3 80 3d d9 d9 4f 3e 21 da 02 3e
       0.035820805 0.06296513 0.20297946 0.12778522
0002b0 ee 6a ba 3d 3e fb d1 3a 75 8c 6e bd bb 72 74 3c
       0.091024265 0.001602031 -0.05823942 0.014919932
0002c0 67 3c 98 3d 7e 23 c8 3d 9a 20 cf 3c 95 7b cc 3d
       0.07433396 0.097723946 0.0252841 0.09984509
0002d0 0b e0 17 bd 67 77 e7 3d c9 36 4c 3c b6 fb de 3c
       -0.0370789 0.11302071 0.012464234 0.027219635
0002e0 60 d9 ea 3d 91 8c 16 be b3 99 45 3c 4a f7 8f 3d
       0.11467242 -0.1470206 0.0120605705 0.070295885
0002f0 e8 62 c3 3d 3f 3d fe 3d 1e 44 a5 bd db 77 3b 3c
       0.09540349 0.124140255 -0.08069633 0.01144215
000300 7c 02 10 3d ca 74 2e 3d 21 7c 40 3e a5 b0 87 3d
       0.03515862 0.042591847 0.18797351 0.06625489
000310 1a 89 dc 3c f7 22 57 3c 45 ca a2 3d 6e 14 63 3e
       0.026920844 0.013130895 0.07948736 0.22175762
000320 f6 7c e8 bc 69 48 0e be 27 7d 98 be be 4b 5b be
       -0.028379899 -0.1389481 -0.29782984 -0.21415612
000330 ca 00 10 be 76 52 ba 3d d1 ba 0e bd 71 72 2a be
       -0.14062801 0.090977594 -0.03484613 -0.16645218
000340 1c a9 93 be b1 05 8b be ad a7 8c 3d 02 fa 49 3c
       -0.28839958 -0.2715278 0.06867919 0.012327673
000350 e6 43 c2 bd cb a0 31 be fa fe 4c be c4 45 aa 3d
       -0.09485607 -0.17346494 -0.20019141 0.08314088
000360 a2 8b cb 3c 7a 63 12 bb c0 29 77 b9 1f 58 85 bc
       0.024846856 -0.0022337125 -0.00023571309 -0.016277371
000370 61 8e a4 3d 25 b5 12 bd 90 2b 08 bd 1a 24 24 3d
       0.08034969 -0.035817284 -0.03324467 0.04007349
000380 3e c0 9b 3c 14 38 7a 3d 6a a0 30 3d 75 8b 7a 3c
       0.019012567 0.061088637 0.043121733 0.015292038
000390 cf b3 5d 3d 62 94 0c 3d 63 d2 9c 3d 05 11 41 3c
       0.054126557 0.034321196 0.076573156 0.011783843
0003a0 1e ea fb 3a 34 9c 0b 3d f1 dc b2 3c 64 9a bf bb
       0.0019219553 0.034084514 0.021833869 -0.005847262
0003b0 7b c4 81 3d e9 a3 f6 bc 8f 34 ab 3c 3d 26 a5 3d
       0.06336304 -0.030107455 0.020899085 0.08063934
0003c0 68 cc 9b 3d 8e 1a 77 3d b9 d5 25 3c f9 78 7d 3d
       0.07607347 0.06032806 0.010121756 0.061882947
0003d0 15 c4 bc 3d 2c d5 5a 3d 46 26 d8 39 48 44 2b bc
       0.09217087 0.053425953 0.00041227246 -0.010453291
0003e0 9e 0b 97 3d 2e 35 77 3d 70 b9 2e bd 7e 50 86 bc
       0.07375263 0.06035345 -0.042657316 -0.016395804
0003f0 8b 19 ec 3c 62 6e c2 3c 88 f6 31 bc 4c aa 1c 3d
       0.028820774 0.023734275 -0.010862 0.038248345

sequential_2/conv2d_8/BiasAdd/ReadVariableOp:0 f4 [48]
000000 8b 80 1c bd 06 5a 25 3e 36 15 9b bd 1d b9 30 bc
       -0.038208526 0.16147622 -0.07572405 -0.010786322
000010 79 e3 ae bc 2d be db bc a5 8d 38 bd 8a 9b cf bc
       -0.021348702 -0.026824081 -0.045056958 -0.025342721
000020 89 5e 4d 3e 90 f1 5a be a9 bf 24 3d aa d4 1b 3e
       0.20055594 -0.21381211 0.040221844 0.15217844
000030 7d 40 e2 bb 8a 27 b3 bd e2 c1 0a bd 42 40 80 bd
       -0.0069046603 -0.08747776 -0.033876307 -0.06262256
000040 8c 79 03 bd 15 13 1e bd ab 29 2a bd bd b0 47 bd
       -0.032098338 -0.038592417 -0.041543644 -0.048752535
000050 21 73 3c 3e df 4d 4e 3e e8 5a 51 bd 32 e4 f6 bc
       0.18403293 0.20146893 -0.051112086 -0.030138109
000060 62 75 ac 3c 2a 74 be bc a1 be 06 bd ef cf 81 bd
       0.021052066 -0.02324875 -0.03289664 -0.06338488
000070 0c 9d a5 bd 44 b1 2c bd cf 42 97 bc c9 d1 7a bd
       -0.08086595 -0.04216124 -0.018464474 -0.061235223
000080 20 b1 25 bc 18 83 c3 bd 05 07 ad bd 22 f7 f0 ba
       -0.010113031 -0.095464885 -0.084486045 -0.0018384198
000090 34 5a 61 3e 9b 01 ed bc 2d 76 9f bd 09 c9 31 3e
       0.22007066 -0.02893143 -0.07786212 0.17361845
0000a0 7d 6b ca bc f9 dd cb bd 6e 59 20 3e 04 4a 03 bd
       -0.024709458 -0.09954447 0.15659115 -0.03205301
0000b0 46 2a 87 3c c7 ad 22 bd 0d 5b 8c bd b0 3a dc bc
       0.01649965 -0.03971651 -0.06853304 -0.026883453

sequential_2/conv2d_7/Conv2D/ReadVariableOp:0 f4 [48, 32, 5, 5]
000000 04 7e 82 bd b4 60 87 bc 62 1b 98 3d 13 0e bf 3d
       -0.06371692 -0.016525604 0.07427098 0.09328856
000010 d8 41 a8 bd 77 8d a6 bd 4b 47 d9 3c 7a 2d 6f 3d
       -0.08215684 -0.08132451 0.026523253 0.05839298
000020 83 4b 04 bb 3a d6 84 bd 2e 0d 03 be db 27 77 3c
       -0.002018661 -0.06486173 -0.12797996 0.015085186
000030 3e dd cf 3d e0 20 16 bd 62 0f b5 bd 66 93 0c be
       0.101496205 -0.036652446 -0.08840825 -0.13728103
000040 33 c8 b5 3d ff 24 df 3d 4a 68 5a bd d6 df f4 bc
       0.088760756 0.10895728 -0.053322114 -0.02989189
000050 a3 1c 8a bd 8d 00 ae 3d 68 c7 ae bd 96 20 dc bd
       -0.06743743 0.08496199 -0.085341275 -0.10748403
000060 59 8c ee 3c 28 0a 4c 3d 11 2f 4d 3d cc f8 28 bc
       0.029119657 0.049814373 0.050093714 -0.010313224
000070 71 5e 66 3d 86 10 09 3d 4d 32 88 3d 92 b9 c5 3d
       0.05624241 0.033463024 0.06650219 0.09654535
000080 34 04 09 3d fd 68 df bc 3d e9 ad 3d 47 f3 ce 3d
       0.033451274 -0.027271742 0.08491752 0.10104995
000090 0d d9 98 3d 06 03 bb 3b 3a b0 fb 3d 09 21 e5 3d
       0.07463274 0.0057071475 0.12289472 0.111879416
0000a0 2a 31 08 3e d5 96 f8 bc 95 0c 2f bc a3 91 c3 3d
       0.13300005 -0.03034536 -0.010684152 0.095492624
0000b0 cb 25 86 3d 6f a4 8b 3c af 4b 4d 3b 73 62 be 3d
       0.06550177 0.017046181 0.0031325629 0.092961214
0000c0 29 e6 8d bb 57 58 8b 3d f6 a1 1a 3c 91 e5 a0 3b
       -0.0043304157 0.06803959 0.009438029 0.004910179
0000d0 c8 0c 8f 3d f6 f4 8b 3d bc 91 67 3d 1e 42 5d bd
       0.0698486 0.06833832 0.056535468 -0.054018132
0000e0 8e d5 bd 3c eb 64 1f 3d 8b 57 6b 3d ad a7 f7 3d
       0.02317312 0.038914602 0.057456534 0.120925285
0000f0 2c a2 d2 bd 91 fa ff bd 39 e3 1d bc 9b 11 f4 3c
       -0.10284838 -0.124989636 -0.009636694 0.029793551
000100 60 49 3f 3e 26 1b 17 be 1a 8a 9a bd 4c 9b 09 bd
       0.18680334 -0.1475645 -0.07545872 -0.03359537
000110 7b 5c 1b 3d d8 43 aa 3d 2d b9 62 3a f9 aa 61 3c
       0.037929993 0.083137214 0.0008648809 0.013773673
000120 27 a6 d9 3c 16 69 88 bc 96 d5 44 bb 06 9a 65 bd
       0.026568485 -0.016651671 -0.0030034534 -0.05605509
000130 cb b3 12 be 88 3a cf bb 18 3d 9f bd bd 8c 84 3c
       -0.14326398 -0.006324116 -0.077753246 0.01618039
000140 99 b7 81 bd 8c fb e2 3d 5f 17 d8 3d 98 ad b3 bd
       -0.063338466 0.11083135 0.10551333 -0.08773345
000150 74 b5 9d 3d 75 86 01 3e 52 8a f6 bc c0 16 90 bd
       0.07700625 0.12648948 -0.030095253 -0.07035589
000160 92 8f de 3d 5c e4 11 3e c2 7b 05 bd cc eb 07 be
       0.108672276 0.14247268 -0.032588728 -0.13273543
000170 c7 fe 43 3e 8b 8b 7e 3e 81 07 51 3c 1e 51 05 bc
       0.19140159 0.24857919 0.012758137 -0.008137016
000180 85 72 58 bd 0f 67 b3 3d ce 9d 58 3d fb fa e3 bd
       -0.05284359 0.08759891 0.05288487 -0.11131855
000190 1f b0 6b 3d 0b 72 a3 3c 77 99 b8 bd 77 ca 6c 3d
       0.05754101 0.01995184 -0.09013646 0.057810273
0001a0 64 9b e4 3d ba 8f 13 3e dc 43 90 bd 04 f6 62 3d
       0.11162451 0.14410296 -0.07044193 0.0554104
0001b0 16 c4 bd 3d 5a 4c da 3c 27 3d cb 3c 4d 7e 3f 3c
       0.09265916 0.026647735 0.024809433 0.011687827
0001c0 33 0d 7e 3e f8 ca 14 3e 22 a6 4b 3e 3c a9 e2 bc
       0.24809723 0.14530551 0.19887593 -0.027668588
0001d0 fc 2d 42 3e 68 cd 28 3e d3 a6 7b 3d d7 6f 45 3d
       0.18962854 0.16484606 0.061438393 0.048202362
0001e0 11 b2 85 3c 6b 03 97 3d 76 9d 56 3d 98 2f 6f 3d
       0.01632026 0.07373699 0.05239626 0.058395
0001f0 38 65 3f 3d c2 35 b0 3c b3 84 f2 3c d9 44 a3 3d
       0.04672739 0.021510009 0.029604292 0.07972116
000200 a5 34 c7 ba 20 d8 6e 3d e8 86 ff 3d ea f7 2a 3e
       -0.0015198184 0.05831158 0.12476903 0.16696134
000210 d1 8a 1c 3e 9f 51 94 3d 9d 79 8d 3b 28 d1 e4 bd
       0.1528733 0.072421305 0.004317476 -0.11172706
000220 18 d0 a3 bd 6f 3e a8 bd 2e 79 70 3d ee 02 d1 3d
       -0.07998675 -0.08215033 0.058709316 0.10205637
000230 4d c3 0e bd e6 02 f3 bd b4 20 b2 3d f2 60 ee 3d
       -0.034854222 -0.11865787 0.08697644 0.116395846
000240 25 d1 b9 3d f2 f6 42 bc a2 6e 9b 3d 57 cd 46 bd
       0.09073094 -0.011899697 0.07589461 -0.04853567
000250 05 04 96 bd 2d da 9a bd 1c df 9b 3d 75 d0 39 bc
       -0.073249854 -0.07561145 0.07610914 -0.011341204
000260 48 d5 d3 bd 54 42 b3 bd 68 b0 56 3d db 44 4e bd
       -0.103434145 -0.087528855 0.052414328 -0.050358634
000270 9f 0c 6b be 29 54 4b be a1 b6 4c bd e2 2c 1e 3d
       -0.22954033 -0.19856323 -0.049978856 0.038617022
000280 3d 96 40 be 8c 24 a9 bd 66 17 bd 3d 04 9b 01 3e
       -0.18807311 -0.08258924 0.092329785 0.1265679
000290 2e 7b 8c 3d 95 87 c8 bc ef ff a1 bd 0a dc b5 bc
       0.06859432 -0.024478713 -0.079101436 -0.02219965
0002a0 ad a7 4c bc 40 b1 9a bd 16 ee 0b be 9d f8 0f be
       -0.012491149 -0.07553339 -0.13665041 -0.14059682
0002b0 18 c5 f9 bd 09 9b 8c 3d 03 71 a9 bc d8 05 32 bd
       -0.12195796 0.06865508 -0.020683771 -0.043462604
0002c0 d3 a8 84 3d d4 3d ad 3c dd 09 9d bd 00 18 bb bc
       0.06477513 0.021147646 -0.07667897 -0.022838593
0002d0 4a 09 df bd f2 dc 75 bd 12 23 e9 bb e4 65 53 3d
       -0.108904436 -0.060025163 -0.0071147764 0.051610842
0002e0 14 f2 a2 bb b7 18 bc bd 7f 89 24 3d c1 44 40 3d
       -0.0049727056 -0.091844015 0.04017019 0.04694057
0002f0 a4 11 a8 bc aa 06 10 3d 08 e3 91 bc 12 09 81 3c
       -0.020516224 0.035162605 -0.017808452 0.015751395
000300 16 ad 89 3d 15 b3 9b bd 57 4f 34 bd 4a 5c 5e bc
       0.06722467 -0.076025166 -0.044020977 -0.013571808
000310 90 4f 13 3d 06 b6 8e 3c 4c 5f 5c bc 99 55 64 bd
       0.03596455 0.01742078 -0.013450455 -0.055745695
000320 60 41 53 bd 3c 97 77 bd e8 d2 33 bc 79 b4 cf bc
       -0.05157602 -0.060446963 -0.010975577 -0.02535461
000330 00 5b 6a 3d 76 36 3e 3d 81 86 00 be 85 54 12 be
       0.05721569 0.046438657 -0.12551309 -0.14290054
000340 5c d0 db bc 7d a2 2e bd 1c ee 97 bd df 4b 18 be
       -0.026832752 -0.04263543 -0.07418463 -0.14872693
000350 fe c7 a4 ba bc b3 05 3e ea dd c3 3c 42 87 0b 3c
       -0.0012571809 0.13056844 0.023909528 0.008516135
000360 c5 bb 53 be 32 5c da bb e1 5b 36 bc 8c 75 a5 bd
       -0.20677097 -0.0066638226 -0.011130304 -0.08079061
000370 e8 d3 83 bd ff 0d a8 bd 44 fc d5 3d e6 6b ed bb
       -0.06436902 -0.082057945 0.104485065 -0.0072455285
000380 cf ea 7d bd 98 80 57 be e8 0f 34 be 08 5d f1 bd
       -0.06199151 -0.21045148 -0.17584193 -0.117853224
000390 5b d9 59 be 92 33 73 be 6f 84 12 be 99 c4 03 be
       -0.21274321 -0.23750141 -0.14308332 -0.12867965
0003a0 cc 8d 3a be 1c 18 6b be 79 22 19 be 46 91 d1 bd
       -0.18218154 -0.22958416 -0.14954557 -0.10232787
0003b0 7a e8 34 be e0 46 3d be a4 b7 15 be eb a3 27 be
       -0.17666808 -0.18484068 -0.14620835 -0.16371123
0003c0 48 df b5 bd 1d 19 93 be bb 64 dd bc 19 7a 2e bd
       -0.08880478 -0.28730097 -0.027025571 -0.04259691
0003d0 65 45 06 be 3e b7 8c bd 38 8b e4 bd 6c 2a 3b bc
       -0.1311241 -0.06870888 -0.11159366 -0.011423688
0003e0 f9 3a 73 bc 80 d5 11 be a8 4f 98 bd c1 6e 83 bd
       -0.014845603 -0.142416 -0.07437068 -0.06417609
0003f0 26 d8 ab bd 51 c3 27 bd 64 e6 9a bc 23 3f fd bb
       -0.083908364 -0.040957753 -0.018908687 -0.0077284737

sequential_2/conv2d_7/BiasAdd/ReadVariableOp:0 f4 [48]
000000 46 7b 99 bd 79 ab 95 3d 49 c8 1d bc 2d 1a 8d bc
       -0.07494216 0.073080964 -0.009630271 -0.017224396
000010 0c 1b 0f bd f5 3b 29 be c3 9d 26 3d fb c6 92 3d
       -0.034937903 -0.16526778 0.040677797 0.07166859
000020 53 c4 ea 3d ba 36 fa bc 30 ee b7 bc 04 fc 18 3e
       0.11463227 -0.030543674 -0.022452444 0.14939886
000030 80 28 19 be 43 cf fe bd db e9 fe bc 2f 6a fd bb
       -0.14956856 -0.12441876 -0.03111737 -0.0077336053
000040 d3 0f 9c bd 68 f7 a2 3d fd 94 93 bd c1 cf 61 bd
       -0.07620206 0.07957345 -0.07206152 -0.05512977
000050 b9 6a 47 bd 31 17 0d bd 56 81 0f 3d c3 bd 24 bd
       -0.048685763 -0.034445945 0.035035454 -0.040220033
000060 b3 0e 1a bd 70 05 40 bd a6 89 8b 3d ca 9c f9 3d
       -0.037611675 -0.046880186 0.06813364 0.12188108
000070 c0 ae 02 3e 73 14 e0 bd 6e 32 2f be 6b 6c 2e bd
       0.12761974 -0.109414004 -0.17109081 -0.042583864
000080 2c 8b 8c bd c1 8f 3c bd 3c 2d 38 3d 77 a8 d6 bc
       -0.068624824 -0.046035532 0.044965014 -0.026203377
000090 c6 f0 8b bd 44 d1 26 3c 79 c9 69 bc 88 69 b4 3c
       -0.06833033 0.010181729 -0.014269226 0.022022977
0000a0 e9 fb 8f 3d 32 c5 c0 ba 85 c2 ed bc 5f c0 e8 bb
       0.0703047 -0.0014707206 -0.029023418 -0.0071030105
0000b0 a8 ab ba bc a8 f1 99 3c ea f4 a3 3d a1 77 97 3d
       -0.02278693 0.018791988 0.08005698 0.07395864
